{"class_name": "Sequential", "config": {"name": "sequential_3", "layers": [{"module": "keras.layers", "class_name": "InputLayer", "config": {"batch_input_shape": [null, 128, 128, 3], "dtype": "float32", "sparse": false, "ragged": false, "name": "xception_input"}, "registered_name": null}, {"module": "keras.src.engine.functional", "class_name": "Functional", "config": {"name": "xception", "trainable": false, "layers": [{"module": "keras.layers", "class_name": "InputLayer", "config": {"batch_input_shape": [null, 128, 128, 3], "dtype": "float32", "sparse": false, "ragged": false, "name": "input_3"}, "registered_name": null, "name": "input_3", "inbound_nodes": []}, {"module": "keras.layers", "class_name": "Conv2D", "config": {"name": "block1_conv1", "trainable": false, "dtype": "float32", "filters": 32, "kernel_size": [3, 3], "strides": [2, 2], "padding": "valid", "data_format": "channels_last", "dilation_rate": [1, 1], "groups": 1, "activation": "linear", "use_bias": false, "kernel_initializer": {"module": "keras.initializers", "class_name": "GlorotUniform", "config": {"seed": null}, "registered_name": null}, "bias_initializer": {"module": "keras.initializers", "class_name": "Zeros", "config": {}, "registered_name": null}, "kernel_regularizer": null, "bias_regularizer": null, "activity_regularizer": null, "kernel_constraint": null, "bias_constraint": null}, "registered_name": null, "build_config": {"input_shape": [null, 128, 128, 3]}, "name": "block1_conv1", "inbound_nodes": [[["input_3", 0, 0, {}]]]}, {"module": "keras.layers", "class_name": "BatchNormalization", "config": {"name": "block1_conv1_bn", "trainable": false, "dtype": "float32", "axis": [3], "momentum": 0.99, "epsilon": 0.001, "center": true, "scale": true, "beta_initializer": {"module": "keras.initializers", "class_name": "Zeros", "config": {}, "registered_name": null}, "gamma_initializer": {"module": "keras.initializers", "class_name": "Ones", "config": {}, "registered_name": null}, "moving_mean_initializer": {"module": "keras.initializers", "class_name": "Zeros", "config": {}, "registered_name": null}, "moving_variance_initializer": {"module": "keras.initializers", "class_name": "Ones", "config": {}, "registered_name": null}, "beta_regularizer": null, "gamma_regularizer": null, "beta_constraint": null, "gamma_constraint": null}, "registered_name": null, "build_config": {"input_shape": [null, 63, 63, 32]}, "name": "block1_conv1_bn", "inbound_nodes": [[["block1_conv1", 0, 0, {}]]]}, {"module": "keras.layers", "class_name": "Activation", "config": {"name": "block1_conv1_act", "trainable": false, "dtype": "float32", "activation": "relu"}, "registered_name": null, "build_config": {"input_shape": [null, 63, 63, 32]}, "name": "block1_conv1_act", "inbound_nodes": [[["block1_conv1_bn", 0, 0, {}]]]}, {"module": "keras.layers", "class_name": "Conv2D", "config": {"name": "block1_conv2", "trainable": false, "dtype": "float32", "filters": 64, "kernel_size": [3, 3], "strides": [1, 1], "padding": "valid", "data_format": "channels_last", "dilation_rate": [1, 1], "groups": 1, "activation": "linear", "use_bias": false, "kernel_initializer": {"module": "keras.initializers", "class_name": "GlorotUniform", "config": {"seed": null}, "registered_name": null}, "bias_initializer": {"module": "keras.initializers", "class_name": "Zeros", "config": {}, "registered_name": null}, "kernel_regularizer": null, "bias_regularizer": null, "activity_regularizer": null, "kernel_constraint": null, "bias_constraint": null}, "registered_name": null, "build_config": {"input_shape": [null, 63, 63, 32]}, "name": "block1_conv2", "inbound_nodes": [[["block1_conv1_act", 0, 0, {}]]]}, {"module": "keras.layers", "class_name": "BatchNormalization", "config": {"name": "block1_conv2_bn", "trainable": false, "dtype": "float32", "axis": [3], "momentum": 0.99, "epsilon": 0.001, "center": true, "scale": true, "beta_initializer": {"module": "keras.initializers", "class_name": "Zeros", "config": {}, "registered_name": null}, "gamma_initializer": {"module": "keras.initializers", "class_name": "Ones", "config": {}, "registered_name": null}, "moving_mean_initializer": {"module": "keras.initializers", "class_name": "Zeros", "config": {}, "registered_name": null}, "moving_variance_initializer": {"module": "keras.initializers", "class_name": "Ones", "config": {}, "registered_name": null}, "beta_regularizer": null, "gamma_regularizer": null, "beta_constraint": null, "gamma_constraint": null}, "registered_name": null, "build_config": {"input_shape": [null, 61, 61, 64]}, "name": "block1_conv2_bn", "inbound_nodes": [[["block1_conv2", 0, 0, {}]]]}, {"module": "keras.layers", "class_name": "Activation", "config": {"name": "block1_conv2_act", "trainable": false, "dtype": "float32", "activation": "relu"}, "registered_name": null, "build_config": {"input_shape": [null, 61, 61, 64]}, "name": "block1_conv2_act", "inbound_nodes": [[["block1_conv2_bn", 0, 0, {}]]]}, {"module": "keras.layers", "class_name": "SeparableConv2D", "config": {"name": "block2_sepconv1", "trainable": false, "dtype": "float32", "filters": 128, "kernel_size": [3, 3], "strides": [1, 1], "padding": "same", "data_format": "channels_last", "dilation_rate": [1, 1], "groups": 1, "activation": "linear", "use_bias": false, "kernel_initializer": {"module": "keras.initializers", "class_name": "GlorotUniform", "config": {"seed": null}, "registered_name": null}, "bias_initializer": {"module": "keras.initializers", "class_name": "Zeros", "config": {}, "registered_name": null}, "kernel_regularizer": null, "bias_regularizer": null, "activity_regularizer": null, "kernel_constraint": null, "bias_constraint": null, "depth_multiplier": 1, "depthwise_initializer": {"module": "keras.initializers", "class_name": "GlorotUniform", "config": {"seed": null}, "registered_name": null}, "pointwise_initializer": {"module": "keras.initializers", "class_name": "GlorotUniform", "config": {"seed": null}, "registered_name": null}, "depthwise_regularizer": null, "pointwise_regularizer": null, "depthwise_constraint": null, "pointwise_constraint": null}, "registered_name": null, "build_config": {"input_shape": [null, 61, 61, 64]}, "name": "block2_sepconv1", "inbound_nodes": [[["block1_conv2_act", 0, 0, {}]]]}, {"module": "keras.layers", "class_name": "BatchNormalization", "config": {"name": "block2_sepconv1_bn", "trainable": false, "dtype": "float32", "axis": [3], "momentum": 0.99, "epsilon": 0.001, "center": true, "scale": true, "beta_initializer": {"module": "keras.initializers", "class_name": "Zeros", "config": {}, "registered_name": null}, "gamma_initializer": {"module": "keras.initializers", "class_name": "Ones", "config": {}, "registered_name": null}, "moving_mean_initializer": {"module": "keras.initializers", "class_name": "Zeros", "config": {}, "registered_name": null}, "moving_variance_initializer": {"module": "keras.initializers", "class_name": "Ones", "config": {}, "registered_name": null}, "beta_regularizer": null, "gamma_regularizer": null, "beta_constraint": null, "gamma_constraint": null}, "registered_name": null, "build_config": {"input_shape": [null, 61, 61, 128]}, "name": "block2_sepconv1_bn", "inbound_nodes": [[["block2_sepconv1", 0, 0, {}]]]}, {"module": "keras.layers", "class_name": "Activation", "config": {"name": "block2_sepconv2_act", "trainable": false, "dtype": "float32", "activation": "relu"}, "registered_name": null, "build_config": {"input_shape": [null, 61, 61, 128]}, "name": "block2_sepconv2_act", "inbound_nodes": [[["block2_sepconv1_bn", 0, 0, {}]]]}, {"module": "keras.layers", "class_name": "SeparableConv2D", "config": {"name": "block2_sepconv2", "trainable": false, "dtype": "float32", "filters": 128, "kernel_size": [3, 3], "strides": [1, 1], "padding": "same", "data_format": "channels_last", "dilation_rate": [1, 1], "groups": 1, "activation": "linear", "use_bias": false, "kernel_initializer": {"module": "keras.initializers", "class_name": "GlorotUniform", "config": {"seed": null}, "registered_name": null}, "bias_initializer": {"module": "keras.initializers", "class_name": "Zeros", "config": {}, "registered_name": null}, "kernel_regularizer": null, "bias_regularizer": null, "activity_regularizer": null, "kernel_constraint": null, "bias_constraint": null, "depth_multiplier": 1, "depthwise_initializer": {"module": "keras.initializers", "class_name": "GlorotUniform", "config": {"seed": null}, "registered_name": null}, "pointwise_initializer": {"module": "keras.initializers", "class_name": "GlorotUniform", "config": {"seed": null}, "registered_name": null}, "depthwise_regularizer": null, "pointwise_regularizer": null, "depthwise_constraint": null, "pointwise_constraint": null}, "registered_name": null, "build_config": {"input_shape": [null, 61, 61, 128]}, "name": "block2_sepconv2", "inbound_nodes": [[["block2_sepconv2_act", 0, 0, {}]]]}, {"module": "keras.layers", "class_name": "BatchNormalization", "config": {"name": "block2_sepconv2_bn", "trainable": false, "dtype": "float32", "axis": [3], "momentum": 0.99, "epsilon": 0.001, "center": true, "scale": true, "beta_initializer": {"module": "keras.initializers", "class_name": "Zeros", "config": {}, "registered_name": null}, "gamma_initializer": {"module": "keras.initializers", "class_name": "Ones", "config": {}, "registered_name": null}, "moving_mean_initializer": {"module": "keras.initializers", "class_name": "Zeros", "config": {}, "registered_name": null}, "moving_variance_initializer": {"module": "keras.initializers", "class_name": "Ones", "config": {}, "registered_name": null}, "beta_regularizer": null, "gamma_regularizer": null, "beta_constraint": null, "gamma_constraint": null}, "registered_name": null, "build_config": {"input_shape": [null, 61, 61, 128]}, "name": "block2_sepconv2_bn", "inbound_nodes": [[["block2_sepconv2", 0, 0, {}]]]}, {"module": "keras.layers", "class_name": "Conv2D", "config": {"name": "conv2d_11", "trainable": false, "dtype": "float32", "filters": 128, "kernel_size": [1, 1], "strides": [2, 2], "padding": "same", "data_format": "channels_last", "dilation_rate": [1, 1], "groups": 1, "activation": "linear", "use_bias": false, "kernel_initializer": {"module": "keras.initializers", "class_name": "GlorotUniform", "config": {"seed": null}, "registered_name": null}, "bias_initializer": {"module": "keras.initializers", "class_name": "Zeros", "config": {}, "registered_name": null}, "kernel_regularizer": null, "bias_regularizer": null, "activity_regularizer": null, "kernel_constraint": null, "bias_constraint": null}, "registered_name": null, "build_config": {"input_shape": [null, 61, 61, 64]}, "name": "conv2d_11", "inbound_nodes": [[["block1_conv2_act", 0, 0, {}]]]}, {"module": "keras.layers", "class_name": "MaxPooling2D", "config": {"name": "block2_pool", "trainable": false, "dtype": "float32", "pool_size": [3, 3], "padding": "same", "strides": [2, 2], "data_format": "channels_last"}, "registered_name": null, "build_config": {"input_shape": [null, 61, 61, 128]}, "name": "block2_pool", "inbound_nodes": [[["block2_sepconv2_bn", 0, 0, {}]]]}, {"module": "keras.layers", "class_name": "BatchNormalization", "config": {"name": "batch_normalization_8", "trainable": false, "dtype": "float32", "axis": [3], "momentum": 0.99, "epsilon": 0.001, "center": true, "scale": true, "beta_initializer": {"module": "keras.initializers", "class_name": "Zeros", "config": {}, "registered_name": null}, "gamma_initializer": {"module": "keras.initializers", "class_name": "Ones", "config": {}, "registered_name": null}, "moving_mean_initializer": {"module": "keras.initializers", "class_name": "Zeros", "config": {}, "registered_name": null}, "moving_variance_initializer": {"module": "keras.initializers", "class_name": "Ones", "config": {}, "registered_name": null}, "beta_regularizer": null, "gamma_regularizer": null, "beta_constraint": null, "gamma_constraint": null}, "registered_name": null, "build_config": {"input_shape": [null, 31, 31, 128]}, "name": "batch_normalization_8", "inbound_nodes": [[["conv2d_11", 0, 0, {}]]]}, {"module": "keras.layers", "class_name": "Add", "config": {"name": "add_24", "trainable": false, "dtype": "float32"}, "registered_name": null, "build_config": {"input_shape": [[null, 31, 31, 128], [null, 31, 31, 128]]}, "name": "add_24", "inbound_nodes": [[["block2_pool", 0, 0, {}], ["batch_normalization_8", 0, 0, {}]]]}, {"module": "keras.layers", "class_name": "Activation", "config": {"name": "block3_sepconv1_act", "trainable": false, "dtype": "float32", "activation": "relu"}, "registered_name": null, "build_config": {"input_shape": [null, 31, 31, 128]}, "name": "block3_sepconv1_act", "inbound_nodes": [[["add_24", 0, 0, {}]]]}, {"module": "keras.layers", "class_name": "SeparableConv2D", "config": {"name": "block3_sepconv1", "trainable": false, "dtype": "float32", "filters": 256, "kernel_size": [3, 3], "strides": [1, 1], "padding": "same", "data_format": "channels_last", "dilation_rate": [1, 1], "groups": 1, "activation": "linear", "use_bias": false, "kernel_initializer": {"module": "keras.initializers", "class_name": "GlorotUniform", "config": {"seed": null}, "registered_name": null}, "bias_initializer": {"module": "keras.initializers", "class_name": "Zeros", "config": {}, "registered_name": null}, "kernel_regularizer": null, "bias_regularizer": null, "activity_regularizer": null, "kernel_constraint": null, "bias_constraint": null, "depth_multiplier": 1, "depthwise_initializer": {"module": "keras.initializers", "class_name": "GlorotUniform", "config": {"seed": null}, "registered_name": null}, "pointwise_initializer": {"module": "keras.initializers", "class_name": "GlorotUniform", "config": {"seed": null}, "registered_name": null}, "depthwise_regularizer": null, "pointwise_regularizer": null, "depthwise_constraint": null, "pointwise_constraint": null}, "registered_name": null, "build_config": {"input_shape": [null, 31, 31, 128]}, "name": "block3_sepconv1", "inbound_nodes": [[["block3_sepconv1_act", 0, 0, {}]]]}, {"module": "keras.layers", "class_name": "BatchNormalization", "config": {"name": "block3_sepconv1_bn", "trainable": false, "dtype": "float32", "axis": [3], "momentum": 0.99, "epsilon": 0.001, "center": true, "scale": true, "beta_initializer": {"module": "keras.initializers", "class_name": "Zeros", "config": {}, "registered_name": null}, "gamma_initializer": {"module": "keras.initializers", "class_name": "Ones", "config": {}, "registered_name": null}, "moving_mean_initializer": {"module": "keras.initializers", "class_name": "Zeros", "config": {}, "registered_name": null}, "moving_variance_initializer": {"module": "keras.initializers", "class_name": "Ones", "config": {}, "registered_name": null}, "beta_regularizer": null, "gamma_regularizer": null, "beta_constraint": null, "gamma_constraint": null}, "registered_name": null, "build_config": {"input_shape": [null, 31, 31, 256]}, "name": "block3_sepconv1_bn", "inbound_nodes": [[["block3_sepconv1", 0, 0, {}]]]}, {"module": "keras.layers", "class_name": "Activation", "config": {"name": "block3_sepconv2_act", "trainable": false, "dtype": "float32", "activation": "relu"}, "registered_name": null, "build_config": {"input_shape": [null, 31, 31, 256]}, "name": "block3_sepconv2_act", "inbound_nodes": [[["block3_sepconv1_bn", 0, 0, {}]]]}, {"module": "keras.layers", "class_name": "SeparableConv2D", "config": {"name": "block3_sepconv2", "trainable": false, "dtype": "float32", "filters": 256, "kernel_size": [3, 3], "strides": [1, 1], "padding": "same", "data_format": "channels_last", "dilation_rate": [1, 1], "groups": 1, "activation": "linear", "use_bias": false, "kernel_initializer": {"module": "keras.initializers", "class_name": "GlorotUniform", "config": {"seed": null}, "registered_name": null}, "bias_initializer": {"module": "keras.initializers", "class_name": "Zeros", "config": {}, "registered_name": null}, "kernel_regularizer": null, "bias_regularizer": null, "activity_regularizer": null, "kernel_constraint": null, "bias_constraint": null, "depth_multiplier": 1, "depthwise_initializer": {"module": "keras.initializers", "class_name": "GlorotUniform", "config": {"seed": null}, "registered_name": null}, "pointwise_initializer": {"module": "keras.initializers", "class_name": "GlorotUniform", "config": {"seed": null}, "registered_name": null}, "depthwise_regularizer": null, "pointwise_regularizer": null, "depthwise_constraint": null, "pointwise_constraint": null}, "registered_name": null, "build_config": {"input_shape": [null, 31, 31, 256]}, "name": "block3_sepconv2", "inbound_nodes": [[["block3_sepconv2_act", 0, 0, {}]]]}, {"module": "keras.layers", "class_name": "BatchNormalization", "config": {"name": "block3_sepconv2_bn", "trainable": false, "dtype": "float32", "axis": [3], "momentum": 0.99, "epsilon": 0.001, "center": true, "scale": true, "beta_initializer": {"module": "keras.initializers", "class_name": "Zeros", "config": {}, "registered_name": null}, "gamma_initializer": {"module": "keras.initializers", "class_name": "Ones", "config": {}, "registered_name": null}, "moving_mean_initializer": {"module": "keras.initializers", "class_name": "Zeros", "config": {}, "registered_name": null}, "moving_variance_initializer": {"module": "keras.initializers", "class_name": "Ones", "config": {}, "registered_name": null}, "beta_regularizer": null, "gamma_regularizer": null, "beta_constraint": null, "gamma_constraint": null}, "registered_name": null, "build_config": {"input_shape": [null, 31, 31, 256]}, "name": "block3_sepconv2_bn", "inbound_nodes": [[["block3_sepconv2", 0, 0, {}]]]}, {"module": "keras.layers", "class_name": "Conv2D", "config": {"name": "conv2d_12", "trainable": false, "dtype": "float32", "filters": 256, "kernel_size": [1, 1], "strides": [2, 2], "padding": "same", "data_format": "channels_last", "dilation_rate": [1, 1], "groups": 1, "activation": "linear", "use_bias": false, "kernel_initializer": {"module": "keras.initializers", "class_name": "GlorotUniform", "config": {"seed": null}, "registered_name": null}, "bias_initializer": {"module": "keras.initializers", "class_name": "Zeros", "config": {}, "registered_name": null}, "kernel_regularizer": null, "bias_regularizer": null, "activity_regularizer": null, "kernel_constraint": null, "bias_constraint": null}, "registered_name": null, "build_config": {"input_shape": [null, 31, 31, 128]}, "name": "conv2d_12", "inbound_nodes": [[["add_24", 0, 0, {}]]]}, {"module": "keras.layers", "class_name": "MaxPooling2D", "config": {"name": "block3_pool", "trainable": false, "dtype": "float32", "pool_size": [3, 3], "padding": "same", "strides": [2, 2], "data_format": "channels_last"}, "registered_name": null, "build_config": {"input_shape": [null, 31, 31, 256]}, "name": "block3_pool", "inbound_nodes": [[["block3_sepconv2_bn", 0, 0, {}]]]}, {"module": "keras.layers", "class_name": "BatchNormalization", "config": {"name": "batch_normalization_9", "trainable": false, "dtype": "float32", "axis": [3], "momentum": 0.99, "epsilon": 0.001, "center": true, "scale": true, "beta_initializer": {"module": "keras.initializers", "class_name": "Zeros", "config": {}, "registered_name": null}, "gamma_initializer": {"module": "keras.initializers", "class_name": "Ones", "config": {}, "registered_name": null}, "moving_mean_initializer": {"module": "keras.initializers", "class_name": "Zeros", "config": {}, "registered_name": null}, "moving_variance_initializer": {"module": "keras.initializers", "class_name": "Ones", "config": {}, "registered_name": null}, "beta_regularizer": null, "gamma_regularizer": null, "beta_constraint": null, "gamma_constraint": null}, "registered_name": null, "build_config": {"input_shape": [null, 16, 16, 256]}, "name": "batch_normalization_9", "inbound_nodes": [[["conv2d_12", 0, 0, {}]]]}, {"module": "keras.layers", "class_name": "Add", "config": {"name": "add_25", "trainable": false, "dtype": "float32"}, "registered_name": null, "build_config": {"input_shape": [[null, 16, 16, 256], [null, 16, 16, 256]]}, "name": "add_25", "inbound_nodes": [[["block3_pool", 0, 0, {}], ["batch_normalization_9", 0, 0, {}]]]}, {"module": "keras.layers", "class_name": "Activation", "config": {"name": "block4_sepconv1_act", "trainable": false, "dtype": "float32", "activation": "relu"}, "registered_name": null, "build_config": {"input_shape": [null, 16, 16, 256]}, "name": "block4_sepconv1_act", "inbound_nodes": [[["add_25", 0, 0, {}]]]}, {"module": "keras.layers", "class_name": "SeparableConv2D", "config": {"name": "block4_sepconv1", "trainable": false, "dtype": "float32", "filters": 728, "kernel_size": [3, 3], "strides": [1, 1], "padding": "same", "data_format": "channels_last", "dilation_rate": [1, 1], "groups": 1, "activation": "linear", "use_bias": false, "kernel_initializer": {"module": "keras.initializers", "class_name": "GlorotUniform", "config": {"seed": null}, "registered_name": null}, "bias_initializer": {"module": "keras.initializers", "class_name": "Zeros", "config": {}, "registered_name": null}, "kernel_regularizer": null, "bias_regularizer": null, "activity_regularizer": null, "kernel_constraint": null, "bias_constraint": null, "depth_multiplier": 1, "depthwise_initializer": {"module": "keras.initializers", "class_name": "GlorotUniform", "config": {"seed": null}, "registered_name": null}, "pointwise_initializer": {"module": "keras.initializers", "class_name": "GlorotUniform", "config": {"seed": null}, "registered_name": null}, "depthwise_regularizer": null, "pointwise_regularizer": null, "depthwise_constraint": null, "pointwise_constraint": null}, "registered_name": null, "build_config": {"input_shape": [null, 16, 16, 256]}, "name": "block4_sepconv1", "inbound_nodes": [[["block4_sepconv1_act", 0, 0, {}]]]}, {"module": "keras.layers", "class_name": "BatchNormalization", "config": {"name": "block4_sepconv1_bn", "trainable": false, "dtype": "float32", "axis": [3], "momentum": 0.99, "epsilon": 0.001, "center": true, "scale": true, "beta_initializer": {"module": "keras.initializers", "class_name": "Zeros", "config": {}, "registered_name": null}, "gamma_initializer": {"module": "keras.initializers", "class_name": "Ones", "config": {}, "registered_name": null}, "moving_mean_initializer": {"module": "keras.initializers", "class_name": "Zeros", "config": {}, "registered_name": null}, "moving_variance_initializer": {"module": "keras.initializers", "class_name": "Ones", "config": {}, "registered_name": null}, "beta_regularizer": null, "gamma_regularizer": null, "beta_constraint": null, "gamma_constraint": null}, "registered_name": null, "build_config": {"input_shape": [null, 16, 16, 728]}, "name": "block4_sepconv1_bn", "inbound_nodes": [[["block4_sepconv1", 0, 0, {}]]]}, {"module": "keras.layers", "class_name": "Activation", "config": {"name": "block4_sepconv2_act", "trainable": false, "dtype": "float32", "activation": "relu"}, "registered_name": null, "build_config": {"input_shape": [null, 16, 16, 728]}, "name": "block4_sepconv2_act", "inbound_nodes": [[["block4_sepconv1_bn", 0, 0, {}]]]}, {"module": "keras.layers", "class_name": "SeparableConv2D", "config": {"name": "block4_sepconv2", "trainable": false, "dtype": "float32", "filters": 728, "kernel_size": [3, 3], "strides": [1, 1], "padding": "same", "data_format": "channels_last", "dilation_rate": [1, 1], "groups": 1, "activation": "linear", "use_bias": false, "kernel_initializer": {"module": "keras.initializers", "class_name": "GlorotUniform", "config": {"seed": null}, "registered_name": null}, "bias_initializer": {"module": "keras.initializers", "class_name": "Zeros", "config": {}, "registered_name": null}, "kernel_regularizer": null, "bias_regularizer": null, "activity_regularizer": null, "kernel_constraint": null, "bias_constraint": null, "depth_multiplier": 1, "depthwise_initializer": {"module": "keras.initializers", "class_name": "GlorotUniform", "config": {"seed": null}, "registered_name": null}, "pointwise_initializer": {"module": "keras.initializers", "class_name": "GlorotUniform", "config": {"seed": null}, "registered_name": null}, "depthwise_regularizer": null, "pointwise_regularizer": null, "depthwise_constraint": null, "pointwise_constraint": null}, "registered_name": null, "build_config": {"input_shape": [null, 16, 16, 728]}, "name": "block4_sepconv2", "inbound_nodes": [[["block4_sepconv2_act", 0, 0, {}]]]}, {"module": "keras.layers", "class_name": "BatchNormalization", "config": {"name": "block4_sepconv2_bn", "trainable": false, "dtype": "float32", "axis": [3], "momentum": 0.99, "epsilon": 0.001, "center": true, "scale": true, "beta_initializer": {"module": "keras.initializers", "class_name": "Zeros", "config": {}, "registered_name": null}, "gamma_initializer": {"module": "keras.initializers", "class_name": "Ones", "config": {}, "registered_name": null}, "moving_mean_initializer": {"module": "keras.initializers", "class_name": "Zeros", "config": {}, "registered_name": null}, "moving_variance_initializer": {"module": "keras.initializers", "class_name": "Ones", "config": {}, "registered_name": null}, "beta_regularizer": null, "gamma_regularizer": null, "beta_constraint": null, "gamma_constraint": null}, "registered_name": null, "build_config": {"input_shape": [null, 16, 16, 728]}, "name": "block4_sepconv2_bn", "inbound_nodes": [[["block4_sepconv2", 0, 0, {}]]]}, {"module": "keras.layers", "class_name": "Conv2D", "config": {"name": "conv2d_13", "trainable": false, "dtype": "float32", "filters": 728, "kernel_size": [1, 1], "strides": [2, 2], "padding": "same", "data_format": "channels_last", "dilation_rate": [1, 1], "groups": 1, "activation": "linear", "use_bias": false, "kernel_initializer": {"module": "keras.initializers", "class_name": "GlorotUniform", "config": {"seed": null}, "registered_name": null}, "bias_initializer": {"module": "keras.initializers", "class_name": "Zeros", "config": {}, "registered_name": null}, "kernel_regularizer": null, "bias_regularizer": null, "activity_regularizer": null, "kernel_constraint": null, "bias_constraint": null}, "registered_name": null, "build_config": {"input_shape": [null, 16, 16, 256]}, "name": "conv2d_13", "inbound_nodes": [[["add_25", 0, 0, {}]]]}, {"module": "keras.layers", "class_name": "MaxPooling2D", "config": {"name": "block4_pool", "trainable": false, "dtype": "float32", "pool_size": [3, 3], "padding": "same", "strides": [2, 2], "data_format": "channels_last"}, "registered_name": null, "build_config": {"input_shape": [null, 16, 16, 728]}, "name": "block4_pool", "inbound_nodes": [[["block4_sepconv2_bn", 0, 0, {}]]]}, {"module": "keras.layers", "class_name": "BatchNormalization", "config": {"name": "batch_normalization_10", "trainable": false, "dtype": "float32", "axis": [3], "momentum": 0.99, "epsilon": 0.001, "center": true, "scale": true, "beta_initializer": {"module": "keras.initializers", "class_name": "Zeros", "config": {}, "registered_name": null}, "gamma_initializer": {"module": "keras.initializers", "class_name": "Ones", "config": {}, "registered_name": null}, "moving_mean_initializer": {"module": "keras.initializers", "class_name": "Zeros", "config": {}, "registered_name": null}, "moving_variance_initializer": {"module": "keras.initializers", "class_name": "Ones", "config": {}, "registered_name": null}, "beta_regularizer": null, "gamma_regularizer": null, "beta_constraint": null, "gamma_constraint": null}, "registered_name": null, "build_config": {"input_shape": [null, 8, 8, 728]}, "name": "batch_normalization_10", "inbound_nodes": [[["conv2d_13", 0, 0, {}]]]}, {"module": "keras.layers", "class_name": "Add", "config": {"name": "add_26", "trainable": false, "dtype": "float32"}, "registered_name": null, "build_config": {"input_shape": [[null, 8, 8, 728], [null, 8, 8, 728]]}, "name": "add_26", "inbound_nodes": [[["block4_pool", 0, 0, {}], ["batch_normalization_10", 0, 0, {}]]]}, {"module": "keras.layers", "class_name": "Activation", "config": {"name": "block5_sepconv1_act", "trainable": false, "dtype": "float32", "activation": "relu"}, "registered_name": null, "build_config": {"input_shape": [null, 8, 8, 728]}, "name": "block5_sepconv1_act", "inbound_nodes": [[["add_26", 0, 0, {}]]]}, {"module": "keras.layers", "class_name": "SeparableConv2D", "config": {"name": "block5_sepconv1", "trainable": false, "dtype": "float32", "filters": 728, "kernel_size": [3, 3], "strides": [1, 1], "padding": "same", "data_format": "channels_last", "dilation_rate": [1, 1], "groups": 1, "activation": "linear", "use_bias": false, "kernel_initializer": {"module": "keras.initializers", "class_name": "GlorotUniform", "config": {"seed": null}, "registered_name": null}, "bias_initializer": {"module": "keras.initializers", "class_name": "Zeros", "config": {}, "registered_name": null}, "kernel_regularizer": null, "bias_regularizer": null, "activity_regularizer": null, "kernel_constraint": null, "bias_constraint": null, "depth_multiplier": 1, "depthwise_initializer": {"module": "keras.initializers", "class_name": "GlorotUniform", "config": {"seed": null}, "registered_name": null}, "pointwise_initializer": {"module": "keras.initializers", "class_name": "GlorotUniform", "config": {"seed": null}, "registered_name": null}, "depthwise_regularizer": null, "pointwise_regularizer": null, "depthwise_constraint": null, "pointwise_constraint": null}, "registered_name": null, "build_config": {"input_shape": [null, 8, 8, 728]}, "name": "block5_sepconv1", "inbound_nodes": [[["block5_sepconv1_act", 0, 0, {}]]]}, {"module": "keras.layers", "class_name": "BatchNormalization", "config": {"name": "block5_sepconv1_bn", "trainable": false, "dtype": "float32", "axis": [3], "momentum": 0.99, "epsilon": 0.001, "center": true, "scale": true, "beta_initializer": {"module": "keras.initializers", "class_name": "Zeros", "config": {}, "registered_name": null}, "gamma_initializer": {"module": "keras.initializers", "class_name": "Ones", "config": {}, "registered_name": null}, "moving_mean_initializer": {"module": "keras.initializers", "class_name": "Zeros", "config": {}, "registered_name": null}, "moving_variance_initializer": {"module": "keras.initializers", "class_name": "Ones", "config": {}, "registered_name": null}, "beta_regularizer": null, "gamma_regularizer": null, "beta_constraint": null, "gamma_constraint": null}, "registered_name": null, "build_config": {"input_shape": [null, 8, 8, 728]}, "name": "block5_sepconv1_bn", "inbound_nodes": [[["block5_sepconv1", 0, 0, {}]]]}, {"module": "keras.layers", "class_name": "Activation", "config": {"name": "block5_sepconv2_act", "trainable": false, "dtype": "float32", "activation": "relu"}, "registered_name": null, "build_config": {"input_shape": [null, 8, 8, 728]}, "name": "block5_sepconv2_act", "inbound_nodes": [[["block5_sepconv1_bn", 0, 0, {}]]]}, {"module": "keras.layers", "class_name": "SeparableConv2D", "config": {"name": "block5_sepconv2", "trainable": false, "dtype": "float32", "filters": 728, "kernel_size": [3, 3], "strides": [1, 1], "padding": "same", "data_format": "channels_last", "dilation_rate": [1, 1], "groups": 1, "activation": "linear", "use_bias": false, "kernel_initializer": {"module": "keras.initializers", "class_name": "GlorotUniform", "config": {"seed": null}, "registered_name": null}, "bias_initializer": {"module": "keras.initializers", "class_name": "Zeros", "config": {}, "registered_name": null}, "kernel_regularizer": null, "bias_regularizer": null, "activity_regularizer": null, "kernel_constraint": null, "bias_constraint": null, "depth_multiplier": 1, "depthwise_initializer": {"module": "keras.initializers", "class_name": "GlorotUniform", "config": {"seed": null}, "registered_name": null}, "pointwise_initializer": {"module": "keras.initializers", "class_name": "GlorotUniform", "config": {"seed": null}, "registered_name": null}, "depthwise_regularizer": null, "pointwise_regularizer": null, "depthwise_constraint": null, "pointwise_constraint": null}, "registered_name": null, "build_config": {"input_shape": [null, 8, 8, 728]}, "name": "block5_sepconv2", "inbound_nodes": [[["block5_sepconv2_act", 0, 0, {}]]]}, {"module": "keras.layers", "class_name": "BatchNormalization", "config": {"name": "block5_sepconv2_bn", "trainable": false, "dtype": "float32", "axis": [3], "momentum": 0.99, "epsilon": 0.001, "center": true, "scale": true, "beta_initializer": {"module": "keras.initializers", "class_name": "Zeros", "config": {}, "registered_name": null}, "gamma_initializer": {"module": "keras.initializers", "class_name": "Ones", "config": {}, "registered_name": null}, "moving_mean_initializer": {"module": "keras.initializers", "class_name": "Zeros", "config": {}, "registered_name": null}, "moving_variance_initializer": {"module": "keras.initializers", "class_name": "Ones", "config": {}, "registered_name": null}, "beta_regularizer": null, "gamma_regularizer": null, "beta_constraint": null, "gamma_constraint": null}, "registered_name": null, "build_config": {"input_shape": [null, 8, 8, 728]}, "name": "block5_sepconv2_bn", "inbound_nodes": [[["block5_sepconv2", 0, 0, {}]]]}, {"module": "keras.layers", "class_name": "Activation", "config": {"name": "block5_sepconv3_act", "trainable": false, "dtype": "float32", "activation": "relu"}, "registered_name": null, "build_config": {"input_shape": [null, 8, 8, 728]}, "name": "block5_sepconv3_act", "inbound_nodes": [[["block5_sepconv2_bn", 0, 0, {}]]]}, {"module": "keras.layers", "class_name": "SeparableConv2D", "config": {"name": "block5_sepconv3", "trainable": false, "dtype": "float32", "filters": 728, "kernel_size": [3, 3], "strides": [1, 1], "padding": "same", "data_format": "channels_last", "dilation_rate": [1, 1], "groups": 1, "activation": "linear", "use_bias": false, "kernel_initializer": {"module": "keras.initializers", "class_name": "GlorotUniform", "config": {"seed": null}, "registered_name": null}, "bias_initializer": {"module": "keras.initializers", "class_name": "Zeros", "config": {}, "registered_name": null}, "kernel_regularizer": null, "bias_regularizer": null, "activity_regularizer": null, "kernel_constraint": null, "bias_constraint": null, "depth_multiplier": 1, "depthwise_initializer": {"module": "keras.initializers", "class_name": "GlorotUniform", "config": {"seed": null}, "registered_name": null}, "pointwise_initializer": {"module": "keras.initializers", "class_name": "GlorotUniform", "config": {"seed": null}, "registered_name": null}, "depthwise_regularizer": null, "pointwise_regularizer": null, "depthwise_constraint": null, "pointwise_constraint": null}, "registered_name": null, "build_config": {"input_shape": [null, 8, 8, 728]}, "name": "block5_sepconv3", "inbound_nodes": [[["block5_sepconv3_act", 0, 0, {}]]]}, {"module": "keras.layers", "class_name": "BatchNormalization", "config": {"name": "block5_sepconv3_bn", "trainable": false, "dtype": "float32", "axis": [3], "momentum": 0.99, "epsilon": 0.001, "center": true, "scale": true, "beta_initializer": {"module": "keras.initializers", "class_name": "Zeros", "config": {}, "registered_name": null}, "gamma_initializer": {"module": "keras.initializers", "class_name": "Ones", "config": {}, "registered_name": null}, "moving_mean_initializer": {"module": "keras.initializers", "class_name": "Zeros", "config": {}, "registered_name": null}, "moving_variance_initializer": {"module": "keras.initializers", "class_name": "Ones", "config": {}, "registered_name": null}, "beta_regularizer": null, "gamma_regularizer": null, "beta_constraint": null, "gamma_constraint": null}, "registered_name": null, "build_config": {"input_shape": [null, 8, 8, 728]}, "name": "block5_sepconv3_bn", "inbound_nodes": [[["block5_sepconv3", 0, 0, {}]]]}, {"module": "keras.layers", "class_name": "Add", "config": {"name": "add_27", "trainable": false, "dtype": "float32"}, "registered_name": null, "build_config": {"input_shape": [[null, 8, 8, 728], [null, 8, 8, 728]]}, "name": "add_27", "inbound_nodes": [[["block5_sepconv3_bn", 0, 0, {}], ["add_26", 0, 0, {}]]]}, {"module": "keras.layers", "class_name": "Activation", "config": {"name": "block6_sepconv1_act", "trainable": false, "dtype": "float32", "activation": "relu"}, "registered_name": null, "build_config": {"input_shape": [null, 8, 8, 728]}, "name": "block6_sepconv1_act", "inbound_nodes": [[["add_27", 0, 0, {}]]]}, {"module": "keras.layers", "class_name": "SeparableConv2D", "config": {"name": "block6_sepconv1", "trainable": false, "dtype": "float32", "filters": 728, "kernel_size": [3, 3], "strides": [1, 1], "padding": "same", "data_format": "channels_last", "dilation_rate": [1, 1], "groups": 1, "activation": "linear", "use_bias": false, "kernel_initializer": {"module": "keras.initializers", "class_name": "GlorotUniform", "config": {"seed": null}, "registered_name": null}, "bias_initializer": {"module": "keras.initializers", "class_name": "Zeros", "config": {}, "registered_name": null}, "kernel_regularizer": null, "bias_regularizer": null, "activity_regularizer": null, "kernel_constraint": null, "bias_constraint": null, "depth_multiplier": 1, "depthwise_initializer": {"module": "keras.initializers", "class_name": "GlorotUniform", "config": {"seed": null}, "registered_name": null}, "pointwise_initializer": {"module": "keras.initializers", "class_name": "GlorotUniform", "config": {"seed": null}, "registered_name": null}, "depthwise_regularizer": null, "pointwise_regularizer": null, "depthwise_constraint": null, "pointwise_constraint": null}, "registered_name": null, "build_config": {"input_shape": [null, 8, 8, 728]}, "name": "block6_sepconv1", "inbound_nodes": [[["block6_sepconv1_act", 0, 0, {}]]]}, {"module": "keras.layers", "class_name": "BatchNormalization", "config": {"name": "block6_sepconv1_bn", "trainable": false, "dtype": "float32", "axis": [3], "momentum": 0.99, "epsilon": 0.001, "center": true, "scale": true, "beta_initializer": {"module": "keras.initializers", "class_name": "Zeros", "config": {}, "registered_name": null}, "gamma_initializer": {"module": "keras.initializers", "class_name": "Ones", "config": {}, "registered_name": null}, "moving_mean_initializer": {"module": "keras.initializers", "class_name": "Zeros", "config": {}, "registered_name": null}, "moving_variance_initializer": {"module": "keras.initializers", "class_name": "Ones", "config": {}, "registered_name": null}, "beta_regularizer": null, "gamma_regularizer": null, "beta_constraint": null, "gamma_constraint": null}, "registered_name": null, "build_config": {"input_shape": [null, 8, 8, 728]}, "name": "block6_sepconv1_bn", "inbound_nodes": [[["block6_sepconv1", 0, 0, {}]]]}, {"module": "keras.layers", "class_name": "Activation", "config": {"name": "block6_sepconv2_act", "trainable": false, "dtype": "float32", "activation": "relu"}, "registered_name": null, "build_config": {"input_shape": [null, 8, 8, 728]}, "name": "block6_sepconv2_act", "inbound_nodes": [[["block6_sepconv1_bn", 0, 0, {}]]]}, {"module": "keras.layers", "class_name": "SeparableConv2D", "config": {"name": "block6_sepconv2", "trainable": false, "dtype": "float32", "filters": 728, "kernel_size": [3, 3], "strides": [1, 1], "padding": "same", "data_format": "channels_last", "dilation_rate": [1, 1], "groups": 1, "activation": "linear", "use_bias": false, "kernel_initializer": {"module": "keras.initializers", "class_name": "GlorotUniform", "config": {"seed": null}, "registered_name": null}, "bias_initializer": {"module": "keras.initializers", "class_name": "Zeros", "config": {}, "registered_name": null}, "kernel_regularizer": null, "bias_regularizer": null, "activity_regularizer": null, "kernel_constraint": null, "bias_constraint": null, "depth_multiplier": 1, "depthwise_initializer": {"module": "keras.initializers", "class_name": "GlorotUniform", "config": {"seed": null}, "registered_name": null}, "pointwise_initializer": {"module": "keras.initializers", "class_name": "GlorotUniform", "config": {"seed": null}, "registered_name": null}, "depthwise_regularizer": null, "pointwise_regularizer": null, "depthwise_constraint": null, "pointwise_constraint": null}, "registered_name": null, "build_config": {"input_shape": [null, 8, 8, 728]}, "name": "block6_sepconv2", "inbound_nodes": [[["block6_sepconv2_act", 0, 0, {}]]]}, {"module": "keras.layers", "class_name": "BatchNormalization", "config": {"name": "block6_sepconv2_bn", "trainable": false, "dtype": "float32", "axis": [3], "momentum": 0.99, "epsilon": 0.001, "center": true, "scale": true, "beta_initializer": {"module": "keras.initializers", "class_name": "Zeros", "config": {}, "registered_name": null}, "gamma_initializer": {"module": "keras.initializers", "class_name": "Ones", "config": {}, "registered_name": null}, "moving_mean_initializer": {"module": "keras.initializers", "class_name": "Zeros", "config": {}, "registered_name": null}, "moving_variance_initializer": {"module": "keras.initializers", "class_name": "Ones", "config": {}, "registered_name": null}, "beta_regularizer": null, "gamma_regularizer": null, "beta_constraint": null, "gamma_constraint": null}, "registered_name": null, "build_config": {"input_shape": [null, 8, 8, 728]}, "name": "block6_sepconv2_bn", "inbound_nodes": [[["block6_sepconv2", 0, 0, {}]]]}, {"module": "keras.layers", "class_name": "Activation", "config": {"name": "block6_sepconv3_act", "trainable": false, "dtype": "float32", "activation": "relu"}, "registered_name": null, "build_config": {"input_shape": [null, 8, 8, 728]}, "name": "block6_sepconv3_act", "inbound_nodes": [[["block6_sepconv2_bn", 0, 0, {}]]]}, {"module": "keras.layers", "class_name": "SeparableConv2D", "config": {"name": "block6_sepconv3", "trainable": false, "dtype": "float32", "filters": 728, "kernel_size": [3, 3], "strides": [1, 1], "padding": "same", "data_format": "channels_last", "dilation_rate": [1, 1], "groups": 1, "activation": "linear", "use_bias": false, "kernel_initializer": {"module": "keras.initializers", "class_name": "GlorotUniform", "config": {"seed": null}, "registered_name": null}, "bias_initializer": {"module": "keras.initializers", "class_name": "Zeros", "config": {}, "registered_name": null}, "kernel_regularizer": null, "bias_regularizer": null, "activity_regularizer": null, "kernel_constraint": null, "bias_constraint": null, "depth_multiplier": 1, "depthwise_initializer": {"module": "keras.initializers", "class_name": "GlorotUniform", "config": {"seed": null}, "registered_name": null}, "pointwise_initializer": {"module": "keras.initializers", "class_name": "GlorotUniform", "config": {"seed": null}, "registered_name": null}, "depthwise_regularizer": null, "pointwise_regularizer": null, "depthwise_constraint": null, "pointwise_constraint": null}, "registered_name": null, "build_config": {"input_shape": [null, 8, 8, 728]}, "name": "block6_sepconv3", "inbound_nodes": [[["block6_sepconv3_act", 0, 0, {}]]]}, {"module": "keras.layers", "class_name": "BatchNormalization", "config": {"name": "block6_sepconv3_bn", "trainable": false, "dtype": "float32", "axis": [3], "momentum": 0.99, "epsilon": 0.001, "center": true, "scale": true, "beta_initializer": {"module": "keras.initializers", "class_name": "Zeros", "config": {}, "registered_name": null}, "gamma_initializer": {"module": "keras.initializers", "class_name": "Ones", "config": {}, "registered_name": null}, "moving_mean_initializer": {"module": "keras.initializers", "class_name": "Zeros", "config": {}, "registered_name": null}, "moving_variance_initializer": {"module": "keras.initializers", "class_name": "Ones", "config": {}, "registered_name": null}, "beta_regularizer": null, "gamma_regularizer": null, "beta_constraint": null, "gamma_constraint": null}, "registered_name": null, "build_config": {"input_shape": [null, 8, 8, 728]}, "name": "block6_sepconv3_bn", "inbound_nodes": [[["block6_sepconv3", 0, 0, {}]]]}, {"module": "keras.layers", "class_name": "Add", "config": {"name": "add_28", "trainable": false, "dtype": "float32"}, "registered_name": null, "build_config": {"input_shape": [[null, 8, 8, 728], [null, 8, 8, 728]]}, "name": "add_28", "inbound_nodes": [[["block6_sepconv3_bn", 0, 0, {}], ["add_27", 0, 0, {}]]]}, {"module": "keras.layers", "class_name": "Activation", "config": {"name": "block7_sepconv1_act", "trainable": false, "dtype": "float32", "activation": "relu"}, "registered_name": null, "build_config": {"input_shape": [null, 8, 8, 728]}, "name": "block7_sepconv1_act", "inbound_nodes": [[["add_28", 0, 0, {}]]]}, {"module": "keras.layers", "class_name": "SeparableConv2D", "config": {"name": "block7_sepconv1", "trainable": false, "dtype": "float32", "filters": 728, "kernel_size": [3, 3], "strides": [1, 1], "padding": "same", "data_format": "channels_last", "dilation_rate": [1, 1], "groups": 1, "activation": "linear", "use_bias": false, "kernel_initializer": {"module": "keras.initializers", "class_name": "GlorotUniform", "config": {"seed": null}, "registered_name": null}, "bias_initializer": {"module": "keras.initializers", "class_name": "Zeros", "config": {}, "registered_name": null}, "kernel_regularizer": null, "bias_regularizer": null, "activity_regularizer": null, "kernel_constraint": null, "bias_constraint": null, "depth_multiplier": 1, "depthwise_initializer": {"module": "keras.initializers", "class_name": "GlorotUniform", "config": {"seed": null}, "registered_name": null}, "pointwise_initializer": {"module": "keras.initializers", "class_name": "GlorotUniform", "config": {"seed": null}, "registered_name": null}, "depthwise_regularizer": null, "pointwise_regularizer": null, "depthwise_constraint": null, "pointwise_constraint": null}, "registered_name": null, "build_config": {"input_shape": [null, 8, 8, 728]}, "name": "block7_sepconv1", "inbound_nodes": [[["block7_sepconv1_act", 0, 0, {}]]]}, {"module": "keras.layers", "class_name": "BatchNormalization", "config": {"name": "block7_sepconv1_bn", "trainable": false, "dtype": "float32", "axis": [3], "momentum": 0.99, "epsilon": 0.001, "center": true, "scale": true, "beta_initializer": {"module": "keras.initializers", "class_name": "Zeros", "config": {}, "registered_name": null}, "gamma_initializer": {"module": "keras.initializers", "class_name": "Ones", "config": {}, "registered_name": null}, "moving_mean_initializer": {"module": "keras.initializers", "class_name": "Zeros", "config": {}, "registered_name": null}, "moving_variance_initializer": {"module": "keras.initializers", "class_name": "Ones", "config": {}, "registered_name": null}, "beta_regularizer": null, "gamma_regularizer": null, "beta_constraint": null, "gamma_constraint": null}, "registered_name": null, "build_config": {"input_shape": [null, 8, 8, 728]}, "name": "block7_sepconv1_bn", "inbound_nodes": [[["block7_sepconv1", 0, 0, {}]]]}, {"module": "keras.layers", "class_name": "Activation", "config": {"name": "block7_sepconv2_act", "trainable": false, "dtype": "float32", "activation": "relu"}, "registered_name": null, "build_config": {"input_shape": [null, 8, 8, 728]}, "name": "block7_sepconv2_act", "inbound_nodes": [[["block7_sepconv1_bn", 0, 0, {}]]]}, {"module": "keras.layers", "class_name": "SeparableConv2D", "config": {"name": "block7_sepconv2", "trainable": false, "dtype": "float32", "filters": 728, "kernel_size": [3, 3], "strides": [1, 1], "padding": "same", "data_format": "channels_last", "dilation_rate": [1, 1], "groups": 1, "activation": "linear", "use_bias": false, "kernel_initializer": {"module": "keras.initializers", "class_name": "GlorotUniform", "config": {"seed": null}, "registered_name": null}, "bias_initializer": {"module": "keras.initializers", "class_name": "Zeros", "config": {}, "registered_name": null}, "kernel_regularizer": null, "bias_regularizer": null, "activity_regularizer": null, "kernel_constraint": null, "bias_constraint": null, "depth_multiplier": 1, "depthwise_initializer": {"module": "keras.initializers", "class_name": "GlorotUniform", "config": {"seed": null}, "registered_name": null}, "pointwise_initializer": {"module": "keras.initializers", "class_name": "GlorotUniform", "config": {"seed": null}, "registered_name": null}, "depthwise_regularizer": null, "pointwise_regularizer": null, "depthwise_constraint": null, "pointwise_constraint": null}, "registered_name": null, "build_config": {"input_shape": [null, 8, 8, 728]}, "name": "block7_sepconv2", "inbound_nodes": [[["block7_sepconv2_act", 0, 0, {}]]]}, {"module": "keras.layers", "class_name": "BatchNormalization", "config": {"name": "block7_sepconv2_bn", "trainable": false, "dtype": "float32", "axis": [3], "momentum": 0.99, "epsilon": 0.001, "center": true, "scale": true, "beta_initializer": {"module": "keras.initializers", "class_name": "Zeros", "config": {}, "registered_name": null}, "gamma_initializer": {"module": "keras.initializers", "class_name": "Ones", "config": {}, "registered_name": null}, "moving_mean_initializer": {"module": "keras.initializers", "class_name": "Zeros", "config": {}, "registered_name": null}, "moving_variance_initializer": {"module": "keras.initializers", "class_name": "Ones", "config": {}, "registered_name": null}, "beta_regularizer": null, "gamma_regularizer": null, "beta_constraint": null, "gamma_constraint": null}, "registered_name": null, "build_config": {"input_shape": [null, 8, 8, 728]}, "name": "block7_sepconv2_bn", "inbound_nodes": [[["block7_sepconv2", 0, 0, {}]]]}, {"module": "keras.layers", "class_name": "Activation", "config": {"name": "block7_sepconv3_act", "trainable": false, "dtype": "float32", "activation": "relu"}, "registered_name": null, "build_config": {"input_shape": [null, 8, 8, 728]}, "name": "block7_sepconv3_act", "inbound_nodes": [[["block7_sepconv2_bn", 0, 0, {}]]]}, {"module": "keras.layers", "class_name": "SeparableConv2D", "config": {"name": "block7_sepconv3", "trainable": false, "dtype": "float32", "filters": 728, "kernel_size": [3, 3], "strides": [1, 1], "padding": "same", "data_format": "channels_last", "dilation_rate": [1, 1], "groups": 1, "activation": "linear", "use_bias": false, "kernel_initializer": {"module": "keras.initializers", "class_name": "GlorotUniform", "config": {"seed": null}, "registered_name": null}, "bias_initializer": {"module": "keras.initializers", "class_name": "Zeros", "config": {}, "registered_name": null}, "kernel_regularizer": null, "bias_regularizer": null, "activity_regularizer": null, "kernel_constraint": null, "bias_constraint": null, "depth_multiplier": 1, "depthwise_initializer": {"module": "keras.initializers", "class_name": "GlorotUniform", "config": {"seed": null}, "registered_name": null}, "pointwise_initializer": {"module": "keras.initializers", "class_name": "GlorotUniform", "config": {"seed": null}, "registered_name": null}, "depthwise_regularizer": null, "pointwise_regularizer": null, "depthwise_constraint": null, "pointwise_constraint": null}, "registered_name": null, "build_config": {"input_shape": [null, 8, 8, 728]}, "name": "block7_sepconv3", "inbound_nodes": [[["block7_sepconv3_act", 0, 0, {}]]]}, {"module": "keras.layers", "class_name": "BatchNormalization", "config": {"name": "block7_sepconv3_bn", "trainable": false, "dtype": "float32", "axis": [3], "momentum": 0.99, "epsilon": 0.001, "center": true, "scale": true, "beta_initializer": {"module": "keras.initializers", "class_name": "Zeros", "config": {}, "registered_name": null}, "gamma_initializer": {"module": "keras.initializers", "class_name": "Ones", "config": {}, "registered_name": null}, "moving_mean_initializer": {"module": "keras.initializers", "class_name": "Zeros", "config": {}, "registered_name": null}, "moving_variance_initializer": {"module": "keras.initializers", "class_name": "Ones", "config": {}, "registered_name": null}, "beta_regularizer": null, "gamma_regularizer": null, "beta_constraint": null, "gamma_constraint": null}, "registered_name": null, "build_config": {"input_shape": [null, 8, 8, 728]}, "name": "block7_sepconv3_bn", "inbound_nodes": [[["block7_sepconv3", 0, 0, {}]]]}, {"module": "keras.layers", "class_name": "Add", "config": {"name": "add_29", "trainable": false, "dtype": "float32"}, "registered_name": null, "build_config": {"input_shape": [[null, 8, 8, 728], [null, 8, 8, 728]]}, "name": "add_29", "inbound_nodes": [[["block7_sepconv3_bn", 0, 0, {}], ["add_28", 0, 0, {}]]]}, {"module": "keras.layers", "class_name": "Activation", "config": {"name": "block8_sepconv1_act", "trainable": false, "dtype": "float32", "activation": "relu"}, "registered_name": null, "build_config": {"input_shape": [null, 8, 8, 728]}, "name": "block8_sepconv1_act", "inbound_nodes": [[["add_29", 0, 0, {}]]]}, {"module": "keras.layers", "class_name": "SeparableConv2D", "config": {"name": "block8_sepconv1", "trainable": false, "dtype": "float32", "filters": 728, "kernel_size": [3, 3], "strides": [1, 1], "padding": "same", "data_format": "channels_last", "dilation_rate": [1, 1], "groups": 1, "activation": "linear", "use_bias": false, "kernel_initializer": {"module": "keras.initializers", "class_name": "GlorotUniform", "config": {"seed": null}, "registered_name": null}, "bias_initializer": {"module": "keras.initializers", "class_name": "Zeros", "config": {}, "registered_name": null}, "kernel_regularizer": null, "bias_regularizer": null, "activity_regularizer": null, "kernel_constraint": null, "bias_constraint": null, "depth_multiplier": 1, "depthwise_initializer": {"module": "keras.initializers", "class_name": "GlorotUniform", "config": {"seed": null}, "registered_name": null}, "pointwise_initializer": {"module": "keras.initializers", "class_name": "GlorotUniform", "config": {"seed": null}, "registered_name": null}, "depthwise_regularizer": null, "pointwise_regularizer": null, "depthwise_constraint": null, "pointwise_constraint": null}, "registered_name": null, "build_config": {"input_shape": [null, 8, 8, 728]}, "name": "block8_sepconv1", "inbound_nodes": [[["block8_sepconv1_act", 0, 0, {}]]]}, {"module": "keras.layers", "class_name": "BatchNormalization", "config": {"name": "block8_sepconv1_bn", "trainable": false, "dtype": "float32", "axis": [3], "momentum": 0.99, "epsilon": 0.001, "center": true, "scale": true, "beta_initializer": {"module": "keras.initializers", "class_name": "Zeros", "config": {}, "registered_name": null}, "gamma_initializer": {"module": "keras.initializers", "class_name": "Ones", "config": {}, "registered_name": null}, "moving_mean_initializer": {"module": "keras.initializers", "class_name": "Zeros", "config": {}, "registered_name": null}, "moving_variance_initializer": {"module": "keras.initializers", "class_name": "Ones", "config": {}, "registered_name": null}, "beta_regularizer": null, "gamma_regularizer": null, "beta_constraint": null, "gamma_constraint": null}, "registered_name": null, "build_config": {"input_shape": [null, 8, 8, 728]}, "name": "block8_sepconv1_bn", "inbound_nodes": [[["block8_sepconv1", 0, 0, {}]]]}, {"module": "keras.layers", "class_name": "Activation", "config": {"name": "block8_sepconv2_act", "trainable": false, "dtype": "float32", "activation": "relu"}, "registered_name": null, "build_config": {"input_shape": [null, 8, 8, 728]}, "name": "block8_sepconv2_act", "inbound_nodes": [[["block8_sepconv1_bn", 0, 0, {}]]]}, {"module": "keras.layers", "class_name": "SeparableConv2D", "config": {"name": "block8_sepconv2", "trainable": false, "dtype": "float32", "filters": 728, "kernel_size": [3, 3], "strides": [1, 1], "padding": "same", "data_format": "channels_last", "dilation_rate": [1, 1], "groups": 1, "activation": "linear", "use_bias": false, "kernel_initializer": {"module": "keras.initializers", "class_name": "GlorotUniform", "config": {"seed": null}, "registered_name": null}, "bias_initializer": {"module": "keras.initializers", "class_name": "Zeros", "config": {}, "registered_name": null}, "kernel_regularizer": null, "bias_regularizer": null, "activity_regularizer": null, "kernel_constraint": null, "bias_constraint": null, "depth_multiplier": 1, "depthwise_initializer": {"module": "keras.initializers", "class_name": "GlorotUniform", "config": {"seed": null}, "registered_name": null}, "pointwise_initializer": {"module": "keras.initializers", "class_name": "GlorotUniform", "config": {"seed": null}, "registered_name": null}, "depthwise_regularizer": null, "pointwise_regularizer": null, "depthwise_constraint": null, "pointwise_constraint": null}, "registered_name": null, "build_config": {"input_shape": [null, 8, 8, 728]}, "name": "block8_sepconv2", "inbound_nodes": [[["block8_sepconv2_act", 0, 0, {}]]]}, {"module": "keras.layers", "class_name": "BatchNormalization", "config": {"name": "block8_sepconv2_bn", "trainable": false, "dtype": "float32", "axis": [3], "momentum": 0.99, "epsilon": 0.001, "center": true, "scale": true, "beta_initializer": {"module": "keras.initializers", "class_name": "Zeros", "config": {}, "registered_name": null}, "gamma_initializer": {"module": "keras.initializers", "class_name": "Ones", "config": {}, "registered_name": null}, "moving_mean_initializer": {"module": "keras.initializers", "class_name": "Zeros", "config": {}, "registered_name": null}, "moving_variance_initializer": {"module": "keras.initializers", "class_name": "Ones", "config": {}, "registered_name": null}, "beta_regularizer": null, "gamma_regularizer": null, "beta_constraint": null, "gamma_constraint": null}, "registered_name": null, "build_config": {"input_shape": [null, 8, 8, 728]}, "name": "block8_sepconv2_bn", "inbound_nodes": [[["block8_sepconv2", 0, 0, {}]]]}, {"module": "keras.layers", "class_name": "Activation", "config": {"name": "block8_sepconv3_act", "trainable": false, "dtype": "float32", "activation": "relu"}, "registered_name": null, "build_config": {"input_shape": [null, 8, 8, 728]}, "name": "block8_sepconv3_act", "inbound_nodes": [[["block8_sepconv2_bn", 0, 0, {}]]]}, {"module": "keras.layers", "class_name": "SeparableConv2D", "config": {"name": "block8_sepconv3", "trainable": false, "dtype": "float32", "filters": 728, "kernel_size": [3, 3], "strides": [1, 1], "padding": "same", "data_format": "channels_last", "dilation_rate": [1, 1], "groups": 1, "activation": "linear", "use_bias": false, "kernel_initializer": {"module": "keras.initializers", "class_name": "GlorotUniform", "config": {"seed": null}, "registered_name": null}, "bias_initializer": {"module": "keras.initializers", "class_name": "Zeros", "config": {}, "registered_name": null}, "kernel_regularizer": null, "bias_regularizer": null, "activity_regularizer": null, "kernel_constraint": null, "bias_constraint": null, "depth_multiplier": 1, "depthwise_initializer": {"module": "keras.initializers", "class_name": "GlorotUniform", "config": {"seed": null}, "registered_name": null}, "pointwise_initializer": {"module": "keras.initializers", "class_name": "GlorotUniform", "config": {"seed": null}, "registered_name": null}, "depthwise_regularizer": null, "pointwise_regularizer": null, "depthwise_constraint": null, "pointwise_constraint": null}, "registered_name": null, "build_config": {"input_shape": [null, 8, 8, 728]}, "name": "block8_sepconv3", "inbound_nodes": [[["block8_sepconv3_act", 0, 0, {}]]]}, {"module": "keras.layers", "class_name": "BatchNormalization", "config": {"name": "block8_sepconv3_bn", "trainable": false, "dtype": "float32", "axis": [3], "momentum": 0.99, "epsilon": 0.001, "center": true, "scale": true, "beta_initializer": {"module": "keras.initializers", "class_name": "Zeros", "config": {}, "registered_name": null}, "gamma_initializer": {"module": "keras.initializers", "class_name": "Ones", "config": {}, "registered_name": null}, "moving_mean_initializer": {"module": "keras.initializers", "class_name": "Zeros", "config": {}, "registered_name": null}, "moving_variance_initializer": {"module": "keras.initializers", "class_name": "Ones", "config": {}, "registered_name": null}, "beta_regularizer": null, "gamma_regularizer": null, "beta_constraint": null, "gamma_constraint": null}, "registered_name": null, "build_config": {"input_shape": [null, 8, 8, 728]}, "name": "block8_sepconv3_bn", "inbound_nodes": [[["block8_sepconv3", 0, 0, {}]]]}, {"module": "keras.layers", "class_name": "Add", "config": {"name": "add_30", "trainable": false, "dtype": "float32"}, "registered_name": null, "build_config": {"input_shape": [[null, 8, 8, 728], [null, 8, 8, 728]]}, "name": "add_30", "inbound_nodes": [[["block8_sepconv3_bn", 0, 0, {}], ["add_29", 0, 0, {}]]]}, {"module": "keras.layers", "class_name": "Activation", "config": {"name": "block9_sepconv1_act", "trainable": false, "dtype": "float32", "activation": "relu"}, "registered_name": null, "build_config": {"input_shape": [null, 8, 8, 728]}, "name": "block9_sepconv1_act", "inbound_nodes": [[["add_30", 0, 0, {}]]]}, {"module": "keras.layers", "class_name": "SeparableConv2D", "config": {"name": "block9_sepconv1", "trainable": false, "dtype": "float32", "filters": 728, "kernel_size": [3, 3], "strides": [1, 1], "padding": "same", "data_format": "channels_last", "dilation_rate": [1, 1], "groups": 1, "activation": "linear", "use_bias": false, "kernel_initializer": {"module": "keras.initializers", "class_name": "GlorotUniform", "config": {"seed": null}, "registered_name": null}, "bias_initializer": {"module": "keras.initializers", "class_name": "Zeros", "config": {}, "registered_name": null}, "kernel_regularizer": null, "bias_regularizer": null, "activity_regularizer": null, "kernel_constraint": null, "bias_constraint": null, "depth_multiplier": 1, "depthwise_initializer": {"module": "keras.initializers", "class_name": "GlorotUniform", "config": {"seed": null}, "registered_name": null}, "pointwise_initializer": {"module": "keras.initializers", "class_name": "GlorotUniform", "config": {"seed": null}, "registered_name": null}, "depthwise_regularizer": null, "pointwise_regularizer": null, "depthwise_constraint": null, "pointwise_constraint": null}, "registered_name": null, "build_config": {"input_shape": [null, 8, 8, 728]}, "name": "block9_sepconv1", "inbound_nodes": [[["block9_sepconv1_act", 0, 0, {}]]]}, {"module": "keras.layers", "class_name": "BatchNormalization", "config": {"name": "block9_sepconv1_bn", "trainable": false, "dtype": "float32", "axis": [3], "momentum": 0.99, "epsilon": 0.001, "center": true, "scale": true, "beta_initializer": {"module": "keras.initializers", "class_name": "Zeros", "config": {}, "registered_name": null}, "gamma_initializer": {"module": "keras.initializers", "class_name": "Ones", "config": {}, "registered_name": null}, "moving_mean_initializer": {"module": "keras.initializers", "class_name": "Zeros", "config": {}, "registered_name": null}, "moving_variance_initializer": {"module": "keras.initializers", "class_name": "Ones", "config": {}, "registered_name": null}, "beta_regularizer": null, "gamma_regularizer": null, "beta_constraint": null, "gamma_constraint": null}, "registered_name": null, "build_config": {"input_shape": [null, 8, 8, 728]}, "name": "block9_sepconv1_bn", "inbound_nodes": [[["block9_sepconv1", 0, 0, {}]]]}, {"module": "keras.layers", "class_name": "Activation", "config": {"name": "block9_sepconv2_act", "trainable": false, "dtype": "float32", "activation": "relu"}, "registered_name": null, "build_config": {"input_shape": [null, 8, 8, 728]}, "name": "block9_sepconv2_act", "inbound_nodes": [[["block9_sepconv1_bn", 0, 0, {}]]]}, {"module": "keras.layers", "class_name": "SeparableConv2D", "config": {"name": "block9_sepconv2", "trainable": false, "dtype": "float32", "filters": 728, "kernel_size": [3, 3], "strides": [1, 1], "padding": "same", "data_format": "channels_last", "dilation_rate": [1, 1], "groups": 1, "activation": "linear", "use_bias": false, "kernel_initializer": {"module": "keras.initializers", "class_name": "GlorotUniform", "config": {"seed": null}, "registered_name": null}, "bias_initializer": {"module": "keras.initializers", "class_name": "Zeros", "config": {}, "registered_name": null}, "kernel_regularizer": null, "bias_regularizer": null, "activity_regularizer": null, "kernel_constraint": null, "bias_constraint": null, "depth_multiplier": 1, "depthwise_initializer": {"module": "keras.initializers", "class_name": "GlorotUniform", "config": {"seed": null}, "registered_name": null}, "pointwise_initializer": {"module": "keras.initializers", "class_name": "GlorotUniform", "config": {"seed": null}, "registered_name": null}, "depthwise_regularizer": null, "pointwise_regularizer": null, "depthwise_constraint": null, "pointwise_constraint": null}, "registered_name": null, "build_config": {"input_shape": [null, 8, 8, 728]}, "name": "block9_sepconv2", "inbound_nodes": [[["block9_sepconv2_act", 0, 0, {}]]]}, {"module": "keras.layers", "class_name": "BatchNormalization", "config": {"name": "block9_sepconv2_bn", "trainable": false, "dtype": "float32", "axis": [3], "momentum": 0.99, "epsilon": 0.001, "center": true, "scale": true, "beta_initializer": {"module": "keras.initializers", "class_name": "Zeros", "config": {}, "registered_name": null}, "gamma_initializer": {"module": "keras.initializers", "class_name": "Ones", "config": {}, "registered_name": null}, "moving_mean_initializer": {"module": "keras.initializers", "class_name": "Zeros", "config": {}, "registered_name": null}, "moving_variance_initializer": {"module": "keras.initializers", "class_name": "Ones", "config": {}, "registered_name": null}, "beta_regularizer": null, "gamma_regularizer": null, "beta_constraint": null, "gamma_constraint": null}, "registered_name": null, "build_config": {"input_shape": [null, 8, 8, 728]}, "name": "block9_sepconv2_bn", "inbound_nodes": [[["block9_sepconv2", 0, 0, {}]]]}, {"module": "keras.layers", "class_name": "Activation", "config": {"name": "block9_sepconv3_act", "trainable": false, "dtype": "float32", "activation": "relu"}, "registered_name": null, "build_config": {"input_shape": [null, 8, 8, 728]}, "name": "block9_sepconv3_act", "inbound_nodes": [[["block9_sepconv2_bn", 0, 0, {}]]]}, {"module": "keras.layers", "class_name": "SeparableConv2D", "config": {"name": "block9_sepconv3", "trainable": false, "dtype": "float32", "filters": 728, "kernel_size": [3, 3], "strides": [1, 1], "padding": "same", "data_format": "channels_last", "dilation_rate": [1, 1], "groups": 1, "activation": "linear", "use_bias": false, "kernel_initializer": {"module": "keras.initializers", "class_name": "GlorotUniform", "config": {"seed": null}, "registered_name": null}, "bias_initializer": {"module": "keras.initializers", "class_name": "Zeros", "config": {}, "registered_name": null}, "kernel_regularizer": null, "bias_regularizer": null, "activity_regularizer": null, "kernel_constraint": null, "bias_constraint": null, "depth_multiplier": 1, "depthwise_initializer": {"module": "keras.initializers", "class_name": "GlorotUniform", "config": {"seed": null}, "registered_name": null}, "pointwise_initializer": {"module": "keras.initializers", "class_name": "GlorotUniform", "config": {"seed": null}, "registered_name": null}, "depthwise_regularizer": null, "pointwise_regularizer": null, "depthwise_constraint": null, "pointwise_constraint": null}, "registered_name": null, "build_config": {"input_shape": [null, 8, 8, 728]}, "name": "block9_sepconv3", "inbound_nodes": [[["block9_sepconv3_act", 0, 0, {}]]]}, {"module": "keras.layers", "class_name": "BatchNormalization", "config": {"name": "block9_sepconv3_bn", "trainable": false, "dtype": "float32", "axis": [3], "momentum": 0.99, "epsilon": 0.001, "center": true, "scale": true, "beta_initializer": {"module": "keras.initializers", "class_name": "Zeros", "config": {}, "registered_name": null}, "gamma_initializer": {"module": "keras.initializers", "class_name": "Ones", "config": {}, "registered_name": null}, "moving_mean_initializer": {"module": "keras.initializers", "class_name": "Zeros", "config": {}, "registered_name": null}, "moving_variance_initializer": {"module": "keras.initializers", "class_name": "Ones", "config": {}, "registered_name": null}, "beta_regularizer": null, "gamma_regularizer": null, "beta_constraint": null, "gamma_constraint": null}, "registered_name": null, "build_config": {"input_shape": [null, 8, 8, 728]}, "name": "block9_sepconv3_bn", "inbound_nodes": [[["block9_sepconv3", 0, 0, {}]]]}, {"module": "keras.layers", "class_name": "Add", "config": {"name": "add_31", "trainable": false, "dtype": "float32"}, "registered_name": null, "build_config": {"input_shape": [[null, 8, 8, 728], [null, 8, 8, 728]]}, "name": "add_31", "inbound_nodes": [[["block9_sepconv3_bn", 0, 0, {}], ["add_30", 0, 0, {}]]]}, {"module": "keras.layers", "class_name": "Activation", "config": {"name": "block10_sepconv1_act", "trainable": false, "dtype": "float32", "activation": "relu"}, "registered_name": null, "build_config": {"input_shape": [null, 8, 8, 728]}, "name": "block10_sepconv1_act", "inbound_nodes": [[["add_31", 0, 0, {}]]]}, {"module": "keras.layers", "class_name": "SeparableConv2D", "config": {"name": "block10_sepconv1", "trainable": false, "dtype": "float32", "filters": 728, "kernel_size": [3, 3], "strides": [1, 1], "padding": "same", "data_format": "channels_last", "dilation_rate": [1, 1], "groups": 1, "activation": "linear", "use_bias": false, "kernel_initializer": {"module": "keras.initializers", "class_name": "GlorotUniform", "config": {"seed": null}, "registered_name": null}, "bias_initializer": {"module": "keras.initializers", "class_name": "Zeros", "config": {}, "registered_name": null}, "kernel_regularizer": null, "bias_regularizer": null, "activity_regularizer": null, "kernel_constraint": null, "bias_constraint": null, "depth_multiplier": 1, "depthwise_initializer": {"module": "keras.initializers", "class_name": "GlorotUniform", "config": {"seed": null}, "registered_name": null}, "pointwise_initializer": {"module": "keras.initializers", "class_name": "GlorotUniform", "config": {"seed": null}, "registered_name": null}, "depthwise_regularizer": null, "pointwise_regularizer": null, "depthwise_constraint": null, "pointwise_constraint": null}, "registered_name": null, "build_config": {"input_shape": [null, 8, 8, 728]}, "name": "block10_sepconv1", "inbound_nodes": [[["block10_sepconv1_act", 0, 0, {}]]]}, {"module": "keras.layers", "class_name": "BatchNormalization", "config": {"name": "block10_sepconv1_bn", "trainable": false, "dtype": "float32", "axis": [3], "momentum": 0.99, "epsilon": 0.001, "center": true, "scale": true, "beta_initializer": {"module": "keras.initializers", "class_name": "Zeros", "config": {}, "registered_name": null}, "gamma_initializer": {"module": "keras.initializers", "class_name": "Ones", "config": {}, "registered_name": null}, "moving_mean_initializer": {"module": "keras.initializers", "class_name": "Zeros", "config": {}, "registered_name": null}, "moving_variance_initializer": {"module": "keras.initializers", "class_name": "Ones", "config": {}, "registered_name": null}, "beta_regularizer": null, "gamma_regularizer": null, "beta_constraint": null, "gamma_constraint": null}, "registered_name": null, "build_config": {"input_shape": [null, 8, 8, 728]}, "name": "block10_sepconv1_bn", "inbound_nodes": [[["block10_sepconv1", 0, 0, {}]]]}, {"module": "keras.layers", "class_name": "Activation", "config": {"name": "block10_sepconv2_act", "trainable": false, "dtype": "float32", "activation": "relu"}, "registered_name": null, "build_config": {"input_shape": [null, 8, 8, 728]}, "name": "block10_sepconv2_act", "inbound_nodes": [[["block10_sepconv1_bn", 0, 0, {}]]]}, {"module": "keras.layers", "class_name": "SeparableConv2D", "config": {"name": "block10_sepconv2", "trainable": false, "dtype": "float32", "filters": 728, "kernel_size": [3, 3], "strides": [1, 1], "padding": "same", "data_format": "channels_last", "dilation_rate": [1, 1], "groups": 1, "activation": "linear", "use_bias": false, "kernel_initializer": {"module": "keras.initializers", "class_name": "GlorotUniform", "config": {"seed": null}, "registered_name": null}, "bias_initializer": {"module": "keras.initializers", "class_name": "Zeros", "config": {}, "registered_name": null}, "kernel_regularizer": null, "bias_regularizer": null, "activity_regularizer": null, "kernel_constraint": null, "bias_constraint": null, "depth_multiplier": 1, "depthwise_initializer": {"module": "keras.initializers", "class_name": "GlorotUniform", "config": {"seed": null}, "registered_name": null}, "pointwise_initializer": {"module": "keras.initializers", "class_name": "GlorotUniform", "config": {"seed": null}, "registered_name": null}, "depthwise_regularizer": null, "pointwise_regularizer": null, "depthwise_constraint": null, "pointwise_constraint": null}, "registered_name": null, "build_config": {"input_shape": [null, 8, 8, 728]}, "name": "block10_sepconv2", "inbound_nodes": [[["block10_sepconv2_act", 0, 0, {}]]]}, {"module": "keras.layers", "class_name": "BatchNormalization", "config": {"name": "block10_sepconv2_bn", "trainable": false, "dtype": "float32", "axis": [3], "momentum": 0.99, "epsilon": 0.001, "center": true, "scale": true, "beta_initializer": {"module": "keras.initializers", "class_name": "Zeros", "config": {}, "registered_name": null}, "gamma_initializer": {"module": "keras.initializers", "class_name": "Ones", "config": {}, "registered_name": null}, "moving_mean_initializer": {"module": "keras.initializers", "class_name": "Zeros", "config": {}, "registered_name": null}, "moving_variance_initializer": {"module": "keras.initializers", "class_name": "Ones", "config": {}, "registered_name": null}, "beta_regularizer": null, "gamma_regularizer": null, "beta_constraint": null, "gamma_constraint": null}, "registered_name": null, "build_config": {"input_shape": [null, 8, 8, 728]}, "name": "block10_sepconv2_bn", "inbound_nodes": [[["block10_sepconv2", 0, 0, {}]]]}, {"module": "keras.layers", "class_name": "Activation", "config": {"name": "block10_sepconv3_act", "trainable": false, "dtype": "float32", "activation": "relu"}, "registered_name": null, "build_config": {"input_shape": [null, 8, 8, 728]}, "name": "block10_sepconv3_act", "inbound_nodes": [[["block10_sepconv2_bn", 0, 0, {}]]]}, {"module": "keras.layers", "class_name": "SeparableConv2D", "config": {"name": "block10_sepconv3", "trainable": false, "dtype": "float32", "filters": 728, "kernel_size": [3, 3], "strides": [1, 1], "padding": "same", "data_format": "channels_last", "dilation_rate": [1, 1], "groups": 1, "activation": "linear", "use_bias": false, "kernel_initializer": {"module": "keras.initializers", "class_name": "GlorotUniform", "config": {"seed": null}, "registered_name": null}, "bias_initializer": {"module": "keras.initializers", "class_name": "Zeros", "config": {}, "registered_name": null}, "kernel_regularizer": null, "bias_regularizer": null, "activity_regularizer": null, "kernel_constraint": null, "bias_constraint": null, "depth_multiplier": 1, "depthwise_initializer": {"module": "keras.initializers", "class_name": "GlorotUniform", "config": {"seed": null}, "registered_name": null}, "pointwise_initializer": {"module": "keras.initializers", "class_name": "GlorotUniform", "config": {"seed": null}, "registered_name": null}, "depthwise_regularizer": null, "pointwise_regularizer": null, "depthwise_constraint": null, "pointwise_constraint": null}, "registered_name": null, "build_config": {"input_shape": [null, 8, 8, 728]}, "name": "block10_sepconv3", "inbound_nodes": [[["block10_sepconv3_act", 0, 0, {}]]]}, {"module": "keras.layers", "class_name": "BatchNormalization", "config": {"name": "block10_sepconv3_bn", "trainable": false, "dtype": "float32", "axis": [3], "momentum": 0.99, "epsilon": 0.001, "center": true, "scale": true, "beta_initializer": {"module": "keras.initializers", "class_name": "Zeros", "config": {}, "registered_name": null}, "gamma_initializer": {"module": "keras.initializers", "class_name": "Ones", "config": {}, "registered_name": null}, "moving_mean_initializer": {"module": "keras.initializers", "class_name": "Zeros", "config": {}, "registered_name": null}, "moving_variance_initializer": {"module": "keras.initializers", "class_name": "Ones", "config": {}, "registered_name": null}, "beta_regularizer": null, "gamma_regularizer": null, "beta_constraint": null, "gamma_constraint": null}, "registered_name": null, "build_config": {"input_shape": [null, 8, 8, 728]}, "name": "block10_sepconv3_bn", "inbound_nodes": [[["block10_sepconv3", 0, 0, {}]]]}, {"module": "keras.layers", "class_name": "Add", "config": {"name": "add_32", "trainable": false, "dtype": "float32"}, "registered_name": null, "build_config": {"input_shape": [[null, 8, 8, 728], [null, 8, 8, 728]]}, "name": "add_32", "inbound_nodes": [[["block10_sepconv3_bn", 0, 0, {}], ["add_31", 0, 0, {}]]]}, {"module": "keras.layers", "class_name": "Activation", "config": {"name": "block11_sepconv1_act", "trainable": false, "dtype": "float32", "activation": "relu"}, "registered_name": null, "build_config": {"input_shape": [null, 8, 8, 728]}, "name": "block11_sepconv1_act", "inbound_nodes": [[["add_32", 0, 0, {}]]]}, {"module": "keras.layers", "class_name": "SeparableConv2D", "config": {"name": "block11_sepconv1", "trainable": false, "dtype": "float32", "filters": 728, "kernel_size": [3, 3], "strides": [1, 1], "padding": "same", "data_format": "channels_last", "dilation_rate": [1, 1], "groups": 1, "activation": "linear", "use_bias": false, "kernel_initializer": {"module": "keras.initializers", "class_name": "GlorotUniform", "config": {"seed": null}, "registered_name": null}, "bias_initializer": {"module": "keras.initializers", "class_name": "Zeros", "config": {}, "registered_name": null}, "kernel_regularizer": null, "bias_regularizer": null, "activity_regularizer": null, "kernel_constraint": null, "bias_constraint": null, "depth_multiplier": 1, "depthwise_initializer": {"module": "keras.initializers", "class_name": "GlorotUniform", "config": {"seed": null}, "registered_name": null}, "pointwise_initializer": {"module": "keras.initializers", "class_name": "GlorotUniform", "config": {"seed": null}, "registered_name": null}, "depthwise_regularizer": null, "pointwise_regularizer": null, "depthwise_constraint": null, "pointwise_constraint": null}, "registered_name": null, "build_config": {"input_shape": [null, 8, 8, 728]}, "name": "block11_sepconv1", "inbound_nodes": [[["block11_sepconv1_act", 0, 0, {}]]]}, {"module": "keras.layers", "class_name": "BatchNormalization", "config": {"name": "block11_sepconv1_bn", "trainable": false, "dtype": "float32", "axis": [3], "momentum": 0.99, "epsilon": 0.001, "center": true, "scale": true, "beta_initializer": {"module": "keras.initializers", "class_name": "Zeros", "config": {}, "registered_name": null}, "gamma_initializer": {"module": "keras.initializers", "class_name": "Ones", "config": {}, "registered_name": null}, "moving_mean_initializer": {"module": "keras.initializers", "class_name": "Zeros", "config": {}, "registered_name": null}, "moving_variance_initializer": {"module": "keras.initializers", "class_name": "Ones", "config": {}, "registered_name": null}, "beta_regularizer": null, "gamma_regularizer": null, "beta_constraint": null, "gamma_constraint": null}, "registered_name": null, "build_config": {"input_shape": [null, 8, 8, 728]}, "name": "block11_sepconv1_bn", "inbound_nodes": [[["block11_sepconv1", 0, 0, {}]]]}, {"module": "keras.layers", "class_name": "Activation", "config": {"name": "block11_sepconv2_act", "trainable": false, "dtype": "float32", "activation": "relu"}, "registered_name": null, "build_config": {"input_shape": [null, 8, 8, 728]}, "name": "block11_sepconv2_act", "inbound_nodes": [[["block11_sepconv1_bn", 0, 0, {}]]]}, {"module": "keras.layers", "class_name": "SeparableConv2D", "config": {"name": "block11_sepconv2", "trainable": false, "dtype": "float32", "filters": 728, "kernel_size": [3, 3], "strides": [1, 1], "padding": "same", "data_format": "channels_last", "dilation_rate": [1, 1], "groups": 1, "activation": "linear", "use_bias": false, "kernel_initializer": {"module": "keras.initializers", "class_name": "GlorotUniform", "config": {"seed": null}, "registered_name": null}, "bias_initializer": {"module": "keras.initializers", "class_name": "Zeros", "config": {}, "registered_name": null}, "kernel_regularizer": null, "bias_regularizer": null, "activity_regularizer": null, "kernel_constraint": null, "bias_constraint": null, "depth_multiplier": 1, "depthwise_initializer": {"module": "keras.initializers", "class_name": "GlorotUniform", "config": {"seed": null}, "registered_name": null}, "pointwise_initializer": {"module": "keras.initializers", "class_name": "GlorotUniform", "config": {"seed": null}, "registered_name": null}, "depthwise_regularizer": null, "pointwise_regularizer": null, "depthwise_constraint": null, "pointwise_constraint": null}, "registered_name": null, "build_config": {"input_shape": [null, 8, 8, 728]}, "name": "block11_sepconv2", "inbound_nodes": [[["block11_sepconv2_act", 0, 0, {}]]]}, {"module": "keras.layers", "class_name": "BatchNormalization", "config": {"name": "block11_sepconv2_bn", "trainable": false, "dtype": "float32", "axis": [3], "momentum": 0.99, "epsilon": 0.001, "center": true, "scale": true, "beta_initializer": {"module": "keras.initializers", "class_name": "Zeros", "config": {}, "registered_name": null}, "gamma_initializer": {"module": "keras.initializers", "class_name": "Ones", "config": {}, "registered_name": null}, "moving_mean_initializer": {"module": "keras.initializers", "class_name": "Zeros", "config": {}, "registered_name": null}, "moving_variance_initializer": {"module": "keras.initializers", "class_name": "Ones", "config": {}, "registered_name": null}, "beta_regularizer": null, "gamma_regularizer": null, "beta_constraint": null, "gamma_constraint": null}, "registered_name": null, "build_config": {"input_shape": [null, 8, 8, 728]}, "name": "block11_sepconv2_bn", "inbound_nodes": [[["block11_sepconv2", 0, 0, {}]]]}, {"module": "keras.layers", "class_name": "Activation", "config": {"name": "block11_sepconv3_act", "trainable": false, "dtype": "float32", "activation": "relu"}, "registered_name": null, "build_config": {"input_shape": [null, 8, 8, 728]}, "name": "block11_sepconv3_act", "inbound_nodes": [[["block11_sepconv2_bn", 0, 0, {}]]]}, {"module": "keras.layers", "class_name": "SeparableConv2D", "config": {"name": "block11_sepconv3", "trainable": false, "dtype": "float32", "filters": 728, "kernel_size": [3, 3], "strides": [1, 1], "padding": "same", "data_format": "channels_last", "dilation_rate": [1, 1], "groups": 1, "activation": "linear", "use_bias": false, "kernel_initializer": {"module": "keras.initializers", "class_name": "GlorotUniform", "config": {"seed": null}, "registered_name": null}, "bias_initializer": {"module": "keras.initializers", "class_name": "Zeros", "config": {}, "registered_name": null}, "kernel_regularizer": null, "bias_regularizer": null, "activity_regularizer": null, "kernel_constraint": null, "bias_constraint": null, "depth_multiplier": 1, "depthwise_initializer": {"module": "keras.initializers", "class_name": "GlorotUniform", "config": {"seed": null}, "registered_name": null}, "pointwise_initializer": {"module": "keras.initializers", "class_name": "GlorotUniform", "config": {"seed": null}, "registered_name": null}, "depthwise_regularizer": null, "pointwise_regularizer": null, "depthwise_constraint": null, "pointwise_constraint": null}, "registered_name": null, "build_config": {"input_shape": [null, 8, 8, 728]}, "name": "block11_sepconv3", "inbound_nodes": [[["block11_sepconv3_act", 0, 0, {}]]]}, {"module": "keras.layers", "class_name": "BatchNormalization", "config": {"name": "block11_sepconv3_bn", "trainable": false, "dtype": "float32", "axis": [3], "momentum": 0.99, "epsilon": 0.001, "center": true, "scale": true, "beta_initializer": {"module": "keras.initializers", "class_name": "Zeros", "config": {}, "registered_name": null}, "gamma_initializer": {"module": "keras.initializers", "class_name": "Ones", "config": {}, "registered_name": null}, "moving_mean_initializer": {"module": "keras.initializers", "class_name": "Zeros", "config": {}, "registered_name": null}, "moving_variance_initializer": {"module": "keras.initializers", "class_name": "Ones", "config": {}, "registered_name": null}, "beta_regularizer": null, "gamma_regularizer": null, "beta_constraint": null, "gamma_constraint": null}, "registered_name": null, "build_config": {"input_shape": [null, 8, 8, 728]}, "name": "block11_sepconv3_bn", "inbound_nodes": [[["block11_sepconv3", 0, 0, {}]]]}, {"module": "keras.layers", "class_name": "Add", "config": {"name": "add_33", "trainable": false, "dtype": "float32"}, "registered_name": null, "build_config": {"input_shape": [[null, 8, 8, 728], [null, 8, 8, 728]]}, "name": "add_33", "inbound_nodes": [[["block11_sepconv3_bn", 0, 0, {}], ["add_32", 0, 0, {}]]]}, {"module": "keras.layers", "class_name": "Activation", "config": {"name": "block12_sepconv1_act", "trainable": false, "dtype": "float32", "activation": "relu"}, "registered_name": null, "build_config": {"input_shape": [null, 8, 8, 728]}, "name": "block12_sepconv1_act", "inbound_nodes": [[["add_33", 0, 0, {}]]]}, {"module": "keras.layers", "class_name": "SeparableConv2D", "config": {"name": "block12_sepconv1", "trainable": false, "dtype": "float32", "filters": 728, "kernel_size": [3, 3], "strides": [1, 1], "padding": "same", "data_format": "channels_last", "dilation_rate": [1, 1], "groups": 1, "activation": "linear", "use_bias": false, "kernel_initializer": {"module": "keras.initializers", "class_name": "GlorotUniform", "config": {"seed": null}, "registered_name": null}, "bias_initializer": {"module": "keras.initializers", "class_name": "Zeros", "config": {}, "registered_name": null}, "kernel_regularizer": null, "bias_regularizer": null, "activity_regularizer": null, "kernel_constraint": null, "bias_constraint": null, "depth_multiplier": 1, "depthwise_initializer": {"module": "keras.initializers", "class_name": "GlorotUniform", "config": {"seed": null}, "registered_name": null}, "pointwise_initializer": {"module": "keras.initializers", "class_name": "GlorotUniform", "config": {"seed": null}, "registered_name": null}, "depthwise_regularizer": null, "pointwise_regularizer": null, "depthwise_constraint": null, "pointwise_constraint": null}, "registered_name": null, "build_config": {"input_shape": [null, 8, 8, 728]}, "name": "block12_sepconv1", "inbound_nodes": [[["block12_sepconv1_act", 0, 0, {}]]]}, {"module": "keras.layers", "class_name": "BatchNormalization", "config": {"name": "block12_sepconv1_bn", "trainable": false, "dtype": "float32", "axis": [3], "momentum": 0.99, "epsilon": 0.001, "center": true, "scale": true, "beta_initializer": {"module": "keras.initializers", "class_name": "Zeros", "config": {}, "registered_name": null}, "gamma_initializer": {"module": "keras.initializers", "class_name": "Ones", "config": {}, "registered_name": null}, "moving_mean_initializer": {"module": "keras.initializers", "class_name": "Zeros", "config": {}, "registered_name": null}, "moving_variance_initializer": {"module": "keras.initializers", "class_name": "Ones", "config": {}, "registered_name": null}, "beta_regularizer": null, "gamma_regularizer": null, "beta_constraint": null, "gamma_constraint": null}, "registered_name": null, "build_config": {"input_shape": [null, 8, 8, 728]}, "name": "block12_sepconv1_bn", "inbound_nodes": [[["block12_sepconv1", 0, 0, {}]]]}, {"module": "keras.layers", "class_name": "Activation", "config": {"name": "block12_sepconv2_act", "trainable": false, "dtype": "float32", "activation": "relu"}, "registered_name": null, "build_config": {"input_shape": [null, 8, 8, 728]}, "name": "block12_sepconv2_act", "inbound_nodes": [[["block12_sepconv1_bn", 0, 0, {}]]]}, {"module": "keras.layers", "class_name": "SeparableConv2D", "config": {"name": "block12_sepconv2", "trainable": false, "dtype": "float32", "filters": 728, "kernel_size": [3, 3], "strides": [1, 1], "padding": "same", "data_format": "channels_last", "dilation_rate": [1, 1], "groups": 1, "activation": "linear", "use_bias": false, "kernel_initializer": {"module": "keras.initializers", "class_name": "GlorotUniform", "config": {"seed": null}, "registered_name": null}, "bias_initializer": {"module": "keras.initializers", "class_name": "Zeros", "config": {}, "registered_name": null}, "kernel_regularizer": null, "bias_regularizer": null, "activity_regularizer": null, "kernel_constraint": null, "bias_constraint": null, "depth_multiplier": 1, "depthwise_initializer": {"module": "keras.initializers", "class_name": "GlorotUniform", "config": {"seed": null}, "registered_name": null}, "pointwise_initializer": {"module": "keras.initializers", "class_name": "GlorotUniform", "config": {"seed": null}, "registered_name": null}, "depthwise_regularizer": null, "pointwise_regularizer": null, "depthwise_constraint": null, "pointwise_constraint": null}, "registered_name": null, "build_config": {"input_shape": [null, 8, 8, 728]}, "name": "block12_sepconv2", "inbound_nodes": [[["block12_sepconv2_act", 0, 0, {}]]]}, {"module": "keras.layers", "class_name": "BatchNormalization", "config": {"name": "block12_sepconv2_bn", "trainable": false, "dtype": "float32", "axis": [3], "momentum": 0.99, "epsilon": 0.001, "center": true, "scale": true, "beta_initializer": {"module": "keras.initializers", "class_name": "Zeros", "config": {}, "registered_name": null}, "gamma_initializer": {"module": "keras.initializers", "class_name": "Ones", "config": {}, "registered_name": null}, "moving_mean_initializer": {"module": "keras.initializers", "class_name": "Zeros", "config": {}, "registered_name": null}, "moving_variance_initializer": {"module": "keras.initializers", "class_name": "Ones", "config": {}, "registered_name": null}, "beta_regularizer": null, "gamma_regularizer": null, "beta_constraint": null, "gamma_constraint": null}, "registered_name": null, "build_config": {"input_shape": [null, 8, 8, 728]}, "name": "block12_sepconv2_bn", "inbound_nodes": [[["block12_sepconv2", 0, 0, {}]]]}, {"module": "keras.layers", "class_name": "Activation", "config": {"name": "block12_sepconv3_act", "trainable": false, "dtype": "float32", "activation": "relu"}, "registered_name": null, "build_config": {"input_shape": [null, 8, 8, 728]}, "name": "block12_sepconv3_act", "inbound_nodes": [[["block12_sepconv2_bn", 0, 0, {}]]]}, {"module": "keras.layers", "class_name": "SeparableConv2D", "config": {"name": "block12_sepconv3", "trainable": false, "dtype": "float32", "filters": 728, "kernel_size": [3, 3], "strides": [1, 1], "padding": "same", "data_format": "channels_last", "dilation_rate": [1, 1], "groups": 1, "activation": "linear", "use_bias": false, "kernel_initializer": {"module": "keras.initializers", "class_name": "GlorotUniform", "config": {"seed": null}, "registered_name": null}, "bias_initializer": {"module": "keras.initializers", "class_name": "Zeros", "config": {}, "registered_name": null}, "kernel_regularizer": null, "bias_regularizer": null, "activity_regularizer": null, "kernel_constraint": null, "bias_constraint": null, "depth_multiplier": 1, "depthwise_initializer": {"module": "keras.initializers", "class_name": "GlorotUniform", "config": {"seed": null}, "registered_name": null}, "pointwise_initializer": {"module": "keras.initializers", "class_name": "GlorotUniform", "config": {"seed": null}, "registered_name": null}, "depthwise_regularizer": null, "pointwise_regularizer": null, "depthwise_constraint": null, "pointwise_constraint": null}, "registered_name": null, "build_config": {"input_shape": [null, 8, 8, 728]}, "name": "block12_sepconv3", "inbound_nodes": [[["block12_sepconv3_act", 0, 0, {}]]]}, {"module": "keras.layers", "class_name": "BatchNormalization", "config": {"name": "block12_sepconv3_bn", "trainable": false, "dtype": "float32", "axis": [3], "momentum": 0.99, "epsilon": 0.001, "center": true, "scale": true, "beta_initializer": {"module": "keras.initializers", "class_name": "Zeros", "config": {}, "registered_name": null}, "gamma_initializer": {"module": "keras.initializers", "class_name": "Ones", "config": {}, "registered_name": null}, "moving_mean_initializer": {"module": "keras.initializers", "class_name": "Zeros", "config": {}, "registered_name": null}, "moving_variance_initializer": {"module": "keras.initializers", "class_name": "Ones", "config": {}, "registered_name": null}, "beta_regularizer": null, "gamma_regularizer": null, "beta_constraint": null, "gamma_constraint": null}, "registered_name": null, "build_config": {"input_shape": [null, 8, 8, 728]}, "name": "block12_sepconv3_bn", "inbound_nodes": [[["block12_sepconv3", 0, 0, {}]]]}, {"module": "keras.layers", "class_name": "Add", "config": {"name": "add_34", "trainable": false, "dtype": "float32"}, "registered_name": null, "build_config": {"input_shape": [[null, 8, 8, 728], [null, 8, 8, 728]]}, "name": "add_34", "inbound_nodes": [[["block12_sepconv3_bn", 0, 0, {}], ["add_33", 0, 0, {}]]]}, {"module": "keras.layers", "class_name": "Activation", "config": {"name": "block13_sepconv1_act", "trainable": false, "dtype": "float32", "activation": "relu"}, "registered_name": null, "build_config": {"input_shape": [null, 8, 8, 728]}, "name": "block13_sepconv1_act", "inbound_nodes": [[["add_34", 0, 0, {}]]]}, {"module": "keras.layers", "class_name": "SeparableConv2D", "config": {"name": "block13_sepconv1", "trainable": false, "dtype": "float32", "filters": 728, "kernel_size": [3, 3], "strides": [1, 1], "padding": "same", "data_format": "channels_last", "dilation_rate": [1, 1], "groups": 1, "activation": "linear", "use_bias": false, "kernel_initializer": {"module": "keras.initializers", "class_name": "GlorotUniform", "config": {"seed": null}, "registered_name": null}, "bias_initializer": {"module": "keras.initializers", "class_name": "Zeros", "config": {}, "registered_name": null}, "kernel_regularizer": null, "bias_regularizer": null, "activity_regularizer": null, "kernel_constraint": null, "bias_constraint": null, "depth_multiplier": 1, "depthwise_initializer": {"module": "keras.initializers", "class_name": "GlorotUniform", "config": {"seed": null}, "registered_name": null}, "pointwise_initializer": {"module": "keras.initializers", "class_name": "GlorotUniform", "config": {"seed": null}, "registered_name": null}, "depthwise_regularizer": null, "pointwise_regularizer": null, "depthwise_constraint": null, "pointwise_constraint": null}, "registered_name": null, "build_config": {"input_shape": [null, 8, 8, 728]}, "name": "block13_sepconv1", "inbound_nodes": [[["block13_sepconv1_act", 0, 0, {}]]]}, {"module": "keras.layers", "class_name": "BatchNormalization", "config": {"name": "block13_sepconv1_bn", "trainable": false, "dtype": "float32", "axis": [3], "momentum": 0.99, "epsilon": 0.001, "center": true, "scale": true, "beta_initializer": {"module": "keras.initializers", "class_name": "Zeros", "config": {}, "registered_name": null}, "gamma_initializer": {"module": "keras.initializers", "class_name": "Ones", "config": {}, "registered_name": null}, "moving_mean_initializer": {"module": "keras.initializers", "class_name": "Zeros", "config": {}, "registered_name": null}, "moving_variance_initializer": {"module": "keras.initializers", "class_name": "Ones", "config": {}, "registered_name": null}, "beta_regularizer": null, "gamma_regularizer": null, "beta_constraint": null, "gamma_constraint": null}, "registered_name": null, "build_config": {"input_shape": [null, 8, 8, 728]}, "name": "block13_sepconv1_bn", "inbound_nodes": [[["block13_sepconv1", 0, 0, {}]]]}, {"module": "keras.layers", "class_name": "Activation", "config": {"name": "block13_sepconv2_act", "trainable": false, "dtype": "float32", "activation": "relu"}, "registered_name": null, "build_config": {"input_shape": [null, 8, 8, 728]}, "name": "block13_sepconv2_act", "inbound_nodes": [[["block13_sepconv1_bn", 0, 0, {}]]]}, {"module": "keras.layers", "class_name": "SeparableConv2D", "config": {"name": "block13_sepconv2", "trainable": false, "dtype": "float32", "filters": 1024, "kernel_size": [3, 3], "strides": [1, 1], "padding": "same", "data_format": "channels_last", "dilation_rate": [1, 1], "groups": 1, "activation": "linear", "use_bias": false, "kernel_initializer": {"module": "keras.initializers", "class_name": "GlorotUniform", "config": {"seed": null}, "registered_name": null}, "bias_initializer": {"module": "keras.initializers", "class_name": "Zeros", "config": {}, "registered_name": null}, "kernel_regularizer": null, "bias_regularizer": null, "activity_regularizer": null, "kernel_constraint": null, "bias_constraint": null, "depth_multiplier": 1, "depthwise_initializer": {"module": "keras.initializers", "class_name": "GlorotUniform", "config": {"seed": null}, "registered_name": null}, "pointwise_initializer": {"module": "keras.initializers", "class_name": "GlorotUniform", "config": {"seed": null}, "registered_name": null}, "depthwise_regularizer": null, "pointwise_regularizer": null, "depthwise_constraint": null, "pointwise_constraint": null}, "registered_name": null, "build_config": {"input_shape": [null, 8, 8, 728]}, "name": "block13_sepconv2", "inbound_nodes": [[["block13_sepconv2_act", 0, 0, {}]]]}, {"module": "keras.layers", "class_name": "BatchNormalization", "config": {"name": "block13_sepconv2_bn", "trainable": false, "dtype": "float32", "axis": [3], "momentum": 0.99, "epsilon": 0.001, "center": true, "scale": true, "beta_initializer": {"module": "keras.initializers", "class_name": "Zeros", "config": {}, "registered_name": null}, "gamma_initializer": {"module": "keras.initializers", "class_name": "Ones", "config": {}, "registered_name": null}, "moving_mean_initializer": {"module": "keras.initializers", "class_name": "Zeros", "config": {}, "registered_name": null}, "moving_variance_initializer": {"module": "keras.initializers", "class_name": "Ones", "config": {}, "registered_name": null}, "beta_regularizer": null, "gamma_regularizer": null, "beta_constraint": null, "gamma_constraint": null}, "registered_name": null, "build_config": {"input_shape": [null, 8, 8, 1024]}, "name": "block13_sepconv2_bn", "inbound_nodes": [[["block13_sepconv2", 0, 0, {}]]]}, {"module": "keras.layers", "class_name": "Conv2D", "config": {"name": "conv2d_14", "trainable": false, "dtype": "float32", "filters": 1024, "kernel_size": [1, 1], "strides": [2, 2], "padding": "same", "data_format": "channels_last", "dilation_rate": [1, 1], "groups": 1, "activation": "linear", "use_bias": false, "kernel_initializer": {"module": "keras.initializers", "class_name": "GlorotUniform", "config": {"seed": null}, "registered_name": null}, "bias_initializer": {"module": "keras.initializers", "class_name": "Zeros", "config": {}, "registered_name": null}, "kernel_regularizer": null, "bias_regularizer": null, "activity_regularizer": null, "kernel_constraint": null, "bias_constraint": null}, "registered_name": null, "build_config": {"input_shape": [null, 8, 8, 728]}, "name": "conv2d_14", "inbound_nodes": [[["add_34", 0, 0, {}]]]}, {"module": "keras.layers", "class_name": "MaxPooling2D", "config": {"name": "block13_pool", "trainable": false, "dtype": "float32", "pool_size": [3, 3], "padding": "same", "strides": [2, 2], "data_format": "channels_last"}, "registered_name": null, "build_config": {"input_shape": [null, 8, 8, 1024]}, "name": "block13_pool", "inbound_nodes": [[["block13_sepconv2_bn", 0, 0, {}]]]}, {"module": "keras.layers", "class_name": "BatchNormalization", "config": {"name": "batch_normalization_11", "trainable": false, "dtype": "float32", "axis": [3], "momentum": 0.99, "epsilon": 0.001, "center": true, "scale": true, "beta_initializer": {"module": "keras.initializers", "class_name": "Zeros", "config": {}, "registered_name": null}, "gamma_initializer": {"module": "keras.initializers", "class_name": "Ones", "config": {}, "registered_name": null}, "moving_mean_initializer": {"module": "keras.initializers", "class_name": "Zeros", "config": {}, "registered_name": null}, "moving_variance_initializer": {"module": "keras.initializers", "class_name": "Ones", "config": {}, "registered_name": null}, "beta_regularizer": null, "gamma_regularizer": null, "beta_constraint": null, "gamma_constraint": null}, "registered_name": null, "build_config": {"input_shape": [null, 4, 4, 1024]}, "name": "batch_normalization_11", "inbound_nodes": [[["conv2d_14", 0, 0, {}]]]}, {"module": "keras.layers", "class_name": "Add", "config": {"name": "add_35", "trainable": false, "dtype": "float32"}, "registered_name": null, "build_config": {"input_shape": [[null, 4, 4, 1024], [null, 4, 4, 1024]]}, "name": "add_35", "inbound_nodes": [[["block13_pool", 0, 0, {}], ["batch_normalization_11", 0, 0, {}]]]}, {"module": "keras.layers", "class_name": "SeparableConv2D", "config": {"name": "block14_sepconv1", "trainable": false, "dtype": "float32", "filters": 1536, "kernel_size": [3, 3], "strides": [1, 1], "padding": "same", "data_format": "channels_last", "dilation_rate": [1, 1], "groups": 1, "activation": "linear", "use_bias": false, "kernel_initializer": {"module": "keras.initializers", "class_name": "GlorotUniform", "config": {"seed": null}, "registered_name": null}, "bias_initializer": {"module": "keras.initializers", "class_name": "Zeros", "config": {}, "registered_name": null}, "kernel_regularizer": null, "bias_regularizer": null, "activity_regularizer": null, "kernel_constraint": null, "bias_constraint": null, "depth_multiplier": 1, "depthwise_initializer": {"module": "keras.initializers", "class_name": "GlorotUniform", "config": {"seed": null}, "registered_name": null}, "pointwise_initializer": {"module": "keras.initializers", "class_name": "GlorotUniform", "config": {"seed": null}, "registered_name": null}, "depthwise_regularizer": null, "pointwise_regularizer": null, "depthwise_constraint": null, "pointwise_constraint": null}, "registered_name": null, "build_config": {"input_shape": [null, 4, 4, 1024]}, "name": "block14_sepconv1", "inbound_nodes": [[["add_35", 0, 0, {}]]]}, {"module": "keras.layers", "class_name": "BatchNormalization", "config": {"name": "block14_sepconv1_bn", "trainable": false, "dtype": "float32", "axis": [3], "momentum": 0.99, "epsilon": 0.001, "center": true, "scale": true, "beta_initializer": {"module": "keras.initializers", "class_name": "Zeros", "config": {}, "registered_name": null}, "gamma_initializer": {"module": "keras.initializers", "class_name": "Ones", "config": {}, "registered_name": null}, "moving_mean_initializer": {"module": "keras.initializers", "class_name": "Zeros", "config": {}, "registered_name": null}, "moving_variance_initializer": {"module": "keras.initializers", "class_name": "Ones", "config": {}, "registered_name": null}, "beta_regularizer": null, "gamma_regularizer": null, "beta_constraint": null, "gamma_constraint": null}, "registered_name": null, "build_config": {"input_shape": [null, 4, 4, 1536]}, "name": "block14_sepconv1_bn", "inbound_nodes": [[["block14_sepconv1", 0, 0, {}]]]}, {"module": "keras.layers", "class_name": "Activation", "config": {"name": "block14_sepconv1_act", "trainable": false, "dtype": "float32", "activation": "relu"}, "registered_name": null, "build_config": {"input_shape": [null, 4, 4, 1536]}, "name": "block14_sepconv1_act", "inbound_nodes": [[["block14_sepconv1_bn", 0, 0, {}]]]}, {"module": "keras.layers", "class_name": "SeparableConv2D", "config": {"name": "block14_sepconv2", "trainable": false, "dtype": "float32", "filters": 2048, "kernel_size": [3, 3], "strides": [1, 1], "padding": "same", "data_format": "channels_last", "dilation_rate": [1, 1], "groups": 1, "activation": "linear", "use_bias": false, "kernel_initializer": {"module": "keras.initializers", "class_name": "GlorotUniform", "config": {"seed": null}, "registered_name": null}, "bias_initializer": {"module": "keras.initializers", "class_name": "Zeros", "config": {}, "registered_name": null}, "kernel_regularizer": null, "bias_regularizer": null, "activity_regularizer": null, "kernel_constraint": null, "bias_constraint": null, "depth_multiplier": 1, "depthwise_initializer": {"module": "keras.initializers", "class_name": "GlorotUniform", "config": {"seed": null}, "registered_name": null}, "pointwise_initializer": {"module": "keras.initializers", "class_name": "GlorotUniform", "config": {"seed": null}, "registered_name": null}, "depthwise_regularizer": null, "pointwise_regularizer": null, "depthwise_constraint": null, "pointwise_constraint": null}, "registered_name": null, "build_config": {"input_shape": [null, 4, 4, 1536]}, "name": "block14_sepconv2", "inbound_nodes": [[["block14_sepconv1_act", 0, 0, {}]]]}, {"module": "keras.layers", "class_name": "BatchNormalization", "config": {"name": "block14_sepconv2_bn", "trainable": false, "dtype": "float32", "axis": [3], "momentum": 0.99, "epsilon": 0.001, "center": true, "scale": true, "beta_initializer": {"module": "keras.initializers", "class_name": "Zeros", "config": {}, "registered_name": null}, "gamma_initializer": {"module": "keras.initializers", "class_name": "Ones", "config": {}, "registered_name": null}, "moving_mean_initializer": {"module": "keras.initializers", "class_name": "Zeros", "config": {}, "registered_name": null}, "moving_variance_initializer": {"module": "keras.initializers", "class_name": "Ones", "config": {}, "registered_name": null}, "beta_regularizer": null, "gamma_regularizer": null, "beta_constraint": null, "gamma_constraint": null}, "registered_name": null, "build_config": {"input_shape": [null, 4, 4, 2048]}, "name": "block14_sepconv2_bn", "inbound_nodes": [[["block14_sepconv2", 0, 0, {}]]]}, {"module": "keras.layers", "class_name": "Activation", "config": {"name": "block14_sepconv2_act", "trainable": false, "dtype": "float32", "activation": "relu"}, "registered_name": null, "build_config": {"input_shape": [null, 4, 4, 2048]}, "name": "block14_sepconv2_act", "inbound_nodes": [[["block14_sepconv2_bn", 0, 0, {}]]]}], "input_layers": [["input_3", 0, 0]], "output_layers": [["block14_sepconv2_act", 0, 0]]}, "registered_name": "Functional", "build_config": {"input_shape": [null, 128, 128, 3]}}, {"module": "keras.layers", "class_name": "Conv2D", "config": {"name": "conv2d_15", "trainable": true, "dtype": "float32", "filters": 32, "kernel_size": [3, 3], "strides": [1, 1], "padding": "same", "data_format": "channels_last", "dilation_rate": [1, 1], "groups": 1, "activation": "relu", "use_bias": true, "kernel_initializer": {"module": "keras.initializers", "class_name": "GlorotUniform", "config": {"seed": null}, "registered_name": null}, "bias_initializer": {"module": "keras.initializers", "class_name": "Zeros", "config": {}, "registered_name": null}, "kernel_regularizer": null, "bias_regularizer": null, "activity_regularizer": null, "kernel_constraint": null, "bias_constraint": null}, "registered_name": null, "build_config": {"input_shape": [null, 4, 4, 2048]}}, {"module": "keras.layers", "class_name": "MaxPooling2D", "config": {"name": "max_pooling2d_3", "trainable": true, "dtype": "float32", "pool_size": [2, 2], "padding": "valid", "strides": [2, 2], "data_format": "channels_last"}, "registered_name": null, "build_config": {"input_shape": [null, 4, 4, 32]}}, {"module": "keras.layers", "class_name": "Dropout", "config": {"name": "dropout_3", "trainable": true, "dtype": "float32", "rate": 0.5, "noise_shape": null, "seed": null}, "registered_name": null, "build_config": {"input_shape": [null, 2, 2, 32]}}, {"module": "keras.layers", "class_name": "Flatten", "config": {"name": "flatten_3", "trainable": true, "dtype": "float32", "data_format": "channels_last"}, "registered_name": null, "build_config": {"input_shape": [null, 2, 2, 32]}}, {"module": "keras.layers", "class_name": "Dense", "config": {"name": "dense_3", "trainable": true, "dtype": "float32", "units": 4, "activation": "softmax", "use_bias": true, "kernel_initializer": {"module": "keras.initializers", "class_name": "GlorotUniform", "config": {"seed": null}, "registered_name": null}, "bias_initializer": {"module": "keras.initializers", "class_name": "Zeros", "config": {}, "registered_name": null}, "kernel_regularizer": null, "bias_regularizer": null, "activity_regularizer": null, "kernel_constraint": null, "bias_constraint": null}, "registered_name": null, "build_config": {"input_shape": [null, 128]}}]}, "keras_version": "2.15.0", "backend": "tensorflow"}